<?xml version="1.0" ?>
<net name="best" version="11">
	<layers>
		<layer id="0" name="x" type="Parameter" version="opset1">
			<data shape="1,512,640,3" element_type="f32"/>
			<rt_info>
				<attribute name="fused_names" version="0" value="x"/>
				<attribute name="old_api_map_element_type" version="0" value="f16"/>
				<attribute name="old_api_map_order" version="0" value="0, 2, 3, 1"/>
			</rt_info>
			<output>
				<port id="0" precision="FP32" names="x:0">
					<dim>1</dim>
					<dim>512</dim>
					<dim>640</dim>
					<dim>3</dim>
				</port>
			</output>
		</layer>
		<layer id="1" name="x/Transpose([0 3 1 2])/value1340420703" type="Const" version="opset1">
			<data element_type="i64" shape="4" offset="0" size="32"/>
			<rt_info>
				<attribute name="fused_names" version="0" value="x/Transpose([0 3 1 2])/value1340420703"/>
			</rt_info>
			<output>
				<port id="0" precision="I64">
					<dim>4</dim>
				</port>
			</output>
		</layer>
		<layer id="2" name="x/Transpose([0 3 1 2])" type="Transpose" version="opset1">
			<rt_info>
				<attribute name="fused_names" version="0" value="x/Transpose([0 3 1 2])"/>
			</rt_info>
			<input>
				<port id="0" precision="FP32">
					<dim>1</dim>
					<dim>512</dim>
					<dim>640</dim>
					<dim>3</dim>
				</port>
				<port id="1" precision="I64">
					<dim>4</dim>
				</port>
			</input>
			<output>
				<port id="2" precision="FP32">
					<dim>1</dim>
					<dim>3</dim>
					<dim>512</dim>
					<dim>640</dim>
				</port>
			</output>
		</layer>
		<layer id="3" name="model/tf_conv/sequential/conv2d/Conv2D/ReadVariableOp_compressed" type="Const" version="opset1">
			<data element_type="f16" shape="16, 3, 6, 6" offset="32" size="3456"/>
			<output>
				<port id="0" precision="FP16">
					<dim>16</dim>
					<dim>3</dim>
					<dim>6</dim>
					<dim>6</dim>
				</port>
			</output>
		</layer>
		<layer id="4" name="model/tf_conv/sequential/conv2d/Conv2D/ReadVariableOp" type="Convert" version="opset1">
			<data destination_type="f32"/>
			<rt_info>
				<attribute name="decompression" version="0"/>
				<attribute name="fused_names" version="0" value="model/tf_conv/sequential/conv2d/Conv2D/ReadVariableOp"/>
			</rt_info>
			<input>
				<port id="0" precision="FP16">
					<dim>16</dim>
					<dim>3</dim>
					<dim>6</dim>
					<dim>6</dim>
				</port>
			</input>
			<output>
				<port id="1" precision="FP32" names="model/tf_conv/sequential/conv2d/Conv2D/ReadVariableOp:0">
					<dim>16</dim>
					<dim>3</dim>
					<dim>6</dim>
					<dim>6</dim>
				</port>
			</output>
		</layer>
		<layer id="5" name="model/tf_conv/sequential/conv2d/Conv2D" type="Convolution" version="opset1">
			<data strides="2, 2" dilations="1, 1" pads_begin="2, 2" pads_end="2, 2" auto_pad="explicit"/>
			<rt_info>
				<attribute name="fused_names" version="0" value="model/tf_conv/sequential/conv2d/Conv2D, model/tf_conv/sequential/tf_pad/Pad"/>
			</rt_info>
			<input>
				<port id="0" precision="FP32">
					<dim>1</dim>
					<dim>3</dim>
					<dim>512</dim>
					<dim>640</dim>
				</port>
				<port id="1" precision="FP32">
					<dim>16</dim>
					<dim>3</dim>
					<dim>6</dim>
					<dim>6</dim>
				</port>
			</input>
			<output>
				<port id="2" precision="FP32" names="model/tf_conv/sequential/conv2d/Conv2D:0">
					<dim>1</dim>
					<dim>16</dim>
					<dim>256</dim>
					<dim>320</dim>
				</port>
			</output>
		</layer>
		<layer id="6" name="model/tf_conv/sequential/conv2d/BiasAdd/ReadVariableOp_compressed" type="Const" version="opset1">
			<data element_type="f16" shape="1, 16, 1, 1" offset="3488" size="32"/>
			<output>
				<port id="0" precision="FP16">
					<dim>1</dim>
					<dim>16</dim>
					<dim>1</dim>
					<dim>1</dim>
				</port>
			</output>
		</layer>
		<layer id="7" name="model/tf_conv/sequential/conv2d/BiasAdd/ReadVariableOp" type="Convert" version="opset1">
			<data destination_type="f32"/>
			<rt_info>
				<attribute name="decompression" version="0"/>
				<attribute name="fused_names" version="0" value="model/tf_conv/sequential/conv2d/BiasAdd/ReadVariableOp"/>
			</rt_info>
			<input>
				<port id="0" precision="FP16">
					<dim>1</dim>
					<dim>16</dim>
					<dim>1</dim>
					<dim>1</dim>
				</port>
			</input>
			<output>
				<port id="1" precision="FP32" names="model/tf_conv/sequential/conv2d/BiasAdd/ReadVariableOp:0">
					<dim>1</dim>
					<dim>16</dim>
					<dim>1</dim>
					<dim>1</dim>
				</port>
			</output>
		</layer>
		<layer id="8" name="model/tf_conv/sequential/conv2d/BiasAdd/Add" type="Add" version="opset1">
			<data auto_broadcast="numpy"/>
			<rt_info>
				<attribute name="fused_names" version="0" value="model/tf_conv/mul, model/tf_conv/sequential/conv2d/BiasAdd/Add"/>
			</rt_info>
			<input>
				<port id="0" precision="FP32">
					<dim>1</dim>
					<dim>16</dim>
					<dim>256</dim>
					<dim>320</dim>
				</port>
				<port id="1" precision="FP32">
					<dim>1</dim>
					<dim>16</dim>
					<dim>1</dim>
					<dim>1</dim>
				</port>
			</input>
			<output>
				<port id="2" precision="FP32" names="model/tf_conv/Identity:0,model/tf_conv/mul:0,model/tf_conv/sequential/conv2d/BiasAdd:0">
					<dim>1</dim>
					<dim>16</dim>
					<dim>256</dim>
					<dim>320</dim>
				</port>
			</output>
		</layer>
		<layer id="9" name="model/tf_conv/mul_1" type="Swish" version="opset4">
			<rt_info>
				<attribute name="fused_names" version="0" value="model/tf_conv/Sigmoid, model/tf_conv/mul_1"/>
			</rt_info>
			<input>
				<port id="0" precision="FP32">
					<dim>1</dim>
					<dim>16</dim>
					<dim>256</dim>
					<dim>320</dim>
				</port>
			</input>
			<output>
				<port id="1" precision="FP32" names="model/tf_conv/IdentityN:0,model/tf_conv/mul_1:0">
					<dim>1</dim>
					<dim>16</dim>
					<dim>256</dim>
					<dim>320</dim>
				</port>
			</output>
		</layer>
		<layer id="10" name="model/tf_conv_1/sequential_1/conv2d_1/Conv2D/ReadVariableOp_compressed" type="Const" version="opset1">
			<data element_type="f16" shape="32, 16, 3, 3" offset="3520" size="9216"/>
			<output>
				<port id="0" precision="FP16">
					<dim>32</dim>
					<dim>16</dim>
					<dim>3</dim>
					<dim>3</dim>
				</port>
			</output>
		</layer>
		<layer id="11" name="model/tf_conv_1/sequential_1/conv2d_1/Conv2D/ReadVariableOp" type="Convert" version="opset1">
			<data destination_type="f32"/>
			<rt_info>
				<attribute name="decompression" version="0"/>
				<attribute name="fused_names" version="0" value="model/tf_conv_1/sequential_1/conv2d_1/Conv2D/ReadVariableOp"/>
			</rt_info>
			<input>
				<port id="0" precision="FP16">
					<dim>32</dim>
					<dim>16</dim>
					<dim>3</dim>
					<dim>3</dim>
				</port>
			</input>
			<output>
				<port id="1" precision="FP32" names="model/tf_conv_1/sequential_1/conv2d_1/Conv2D/ReadVariableOp:0">
					<dim>32</dim>
					<dim>16</dim>
					<dim>3</dim>
					<dim>3</dim>
				</port>
			</output>
		</layer>
		<layer id="12" name="model/tf_conv_1/sequential_1/conv2d_1/Conv2D" type="Convolution" version="opset1">
			<data strides="2, 2" dilations="1, 1" pads_begin="1, 1" pads_end="1, 1" auto_pad="explicit"/>
			<rt_info>
				<attribute name="fused_names" version="0" value="model/tf_conv_1/sequential_1/conv2d_1/Conv2D, model/tf_conv_1/sequential_1/tf_pad_1/Pad"/>
			</rt_info>
			<input>
				<port id="0" precision="FP32">
					<dim>1</dim>
					<dim>16</dim>
					<dim>256</dim>
					<dim>320</dim>
				</port>
				<port id="1" precision="FP32">
					<dim>32</dim>
					<dim>16</dim>
					<dim>3</dim>
					<dim>3</dim>
				</port>
			</input>
			<output>
				<port id="2" precision="FP32" names="model/tf_conv_1/sequential_1/conv2d_1/Conv2D:0">
					<dim>1</dim>
					<dim>32</dim>
					<dim>128</dim>
					<dim>160</dim>
				</port>
			</output>
		</layer>
		<layer id="13" name="model/tf_conv_1/sequential_1/conv2d_1/BiasAdd/ReadVariableOp_compressed" type="Const" version="opset1">
			<data element_type="f16" shape="1, 32, 1, 1" offset="12736" size="64"/>
			<output>
				<port id="0" precision="FP16">
					<dim>1</dim>
					<dim>32</dim>
					<dim>1</dim>
					<dim>1</dim>
				</port>
			</output>
		</layer>
		<layer id="14" name="model/tf_conv_1/sequential_1/conv2d_1/BiasAdd/ReadVariableOp" type="Convert" version="opset1">
			<data destination_type="f32"/>
			<rt_info>
				<attribute name="decompression" version="0"/>
				<attribute name="fused_names" version="0" value="model/tf_conv_1/sequential_1/conv2d_1/BiasAdd/ReadVariableOp"/>
			</rt_info>
			<input>
				<port id="0" precision="FP16">
					<dim>1</dim>
					<dim>32</dim>
					<dim>1</dim>
					<dim>1</dim>
				</port>
			</input>
			<output>
				<port id="1" precision="FP32" names="model/tf_conv_1/sequential_1/conv2d_1/BiasAdd/ReadVariableOp:0">
					<dim>1</dim>
					<dim>32</dim>
					<dim>1</dim>
					<dim>1</dim>
				</port>
			</output>
		</layer>
		<layer id="15" name="model/tf_conv_1/sequential_1/conv2d_1/BiasAdd/Add" type="Add" version="opset1">
			<data auto_broadcast="numpy"/>
			<rt_info>
				<attribute name="fused_names" version="0" value="model/tf_conv_1/mul, model/tf_conv_1/sequential_1/conv2d_1/BiasAdd/Add"/>
			</rt_info>
			<input>
				<port id="0" precision="FP32">
					<dim>1</dim>
					<dim>32</dim>
					<dim>128</dim>
					<dim>160</dim>
				</port>
				<port id="1" precision="FP32">
					<dim>1</dim>
					<dim>32</dim>
					<dim>1</dim>
					<dim>1</dim>
				</port>
			</input>
			<output>
				<port id="2" precision="FP32" names="model/tf_conv_1/Identity:0,model/tf_conv_1/mul:0,model/tf_conv_1/sequential_1/conv2d_1/BiasAdd:0">
					<dim>1</dim>
					<dim>32</dim>
					<dim>128</dim>
					<dim>160</dim>
				</port>
			</output>
		</layer>
		<layer id="16" name="model/tf_conv_1/mul_1" type="Swish" version="opset4">
			<rt_info>
				<attribute name="fused_names" version="0" value="model/tf_conv_1/Sigmoid, model/tf_conv_1/mul_1"/>
			</rt_info>
			<input>
				<port id="0" precision="FP32">
					<dim>1</dim>
					<dim>32</dim>
					<dim>128</dim>
					<dim>160</dim>
				</port>
			</input>
			<output>
				<port id="1" precision="FP32" names="model/tf_conv_1/IdentityN:0,model/tf_conv_1/mul_1:0">
					<dim>1</dim>
					<dim>32</dim>
					<dim>128</dim>
					<dim>160</dim>
				</port>
			</output>
		</layer>
		<layer id="17" name="model/tfc3/tf_conv_2/conv2d_2/Conv2D/ReadVariableOp_compressed" type="Const" version="opset1">
			<data element_type="f16" shape="16, 32, 1, 1" offset="12800" size="1024"/>
			<output>
				<port id="0" precision="FP16">
					<dim>16</dim>
					<dim>32</dim>
					<dim>1</dim>
					<dim>1</dim>
				</port>
			</output>
		</layer>
		<layer id="18" name="model/tfc3/tf_conv_2/conv2d_2/Conv2D/ReadVariableOp" type="Convert" version="opset1">
			<data destination_type="f32"/>
			<rt_info>
				<attribute name="decompression" version="0"/>
				<attribute name="fused_names" version="0" value="model/tfc3/tf_conv_2/conv2d_2/Conv2D/ReadVariableOp"/>
			</rt_info>
			<input>
				<port id="0" precision="FP16">
					<dim>16</dim>
					<dim>32</dim>
					<dim>1</dim>
					<dim>1</dim>
				</port>
			</input>
			<output>
				<port id="1" precision="FP32" names="model/tfc3/tf_conv_2/conv2d_2/Conv2D/ReadVariableOp:0">
					<dim>16</dim>
					<dim>32</dim>
					<dim>1</dim>
					<dim>1</dim>
				</port>
			</output>
		</layer>
		<layer id="19" name="model/tfc3/tf_conv_2/conv2d_2/Conv2D" type="Convolution" version="opset1">
			<data strides="1, 1" dilations="1, 1" pads_begin="0, 0" pads_end="0, 0" auto_pad="same_upper"/>
			<rt_info>
				<attribute name="fused_names" version="0" value="model/tfc3/tf_conv_2/conv2d_2/Conv2D"/>
			</rt_info>
			<input>
				<port id="0" precision="FP32">
					<dim>1</dim>
					<dim>32</dim>
					<dim>128</dim>
					<dim>160</dim>
				</port>
				<port id="1" precision="FP32">
					<dim>16</dim>
					<dim>32</dim>
					<dim>1</dim>
					<dim>1</dim>
				</port>
			</input>
			<output>
				<port id="2" precision="FP32" names="model/tfc3/tf_conv_2/conv2d_2/Conv2D:0">
					<dim>1</dim>
					<dim>16</dim>
					<dim>128</dim>
					<dim>160</dim>
				</port>
			</output>
		</layer>
		<layer id="20" name="model/tfc3/tf_conv_2/conv2d_2/BiasAdd/ReadVariableOp_compressed" type="Const" version="opset1">
			<data element_type="f16" shape="1, 16, 1, 1" offset="13824" size="32"/>
			<output>
				<port id="0" precision="FP16">
					<dim>1</dim>
					<dim>16</dim>
					<dim>1</dim>
					<dim>1</dim>
				</port>
			</output>
		</layer>
		<layer id="21" name="model/tfc3/tf_conv_2/conv2d_2/BiasAdd/ReadVariableOp" type="Convert" version="opset1">
			<data destination_type="f32"/>
			<rt_info>
				<attribute name="decompression" version="0"/>
				<attribute name="fused_names" version="0" value="model/tfc3/tf_conv_2/conv2d_2/BiasAdd/ReadVariableOp"/>
			</rt_info>
			<input>
				<port id="0" precision="FP16">
					<dim>1</dim>
					<dim>16</dim>
					<dim>1</dim>
					<dim>1</dim>
				</port>
			</input>
			<output>
				<port id="1" precision="FP32" names="model/tfc3/tf_conv_2/conv2d_2/BiasAdd/ReadVariableOp:0">
					<dim>1</dim>
					<dim>16</dim>
					<dim>1</dim>
					<dim>1</dim>
				</port>
			</output>
		</layer>
		<layer id="22" name="model/tfc3/tf_conv_2/conv2d_2/BiasAdd/Add" type="Add" version="opset1">
			<data auto_broadcast="numpy"/>
			<rt_info>
				<attribute name="fused_names" version="0" value="model/tfc3/tf_conv_2/conv2d_2/BiasAdd/Add, model/tfc3/tf_conv_2/mul"/>
			</rt_info>
			<input>
				<port id="0" precision="FP32">
					<dim>1</dim>
					<dim>16</dim>
					<dim>128</dim>
					<dim>160</dim>
				</port>
				<port id="1" precision="FP32">
					<dim>1</dim>
					<dim>16</dim>
					<dim>1</dim>
					<dim>1</dim>
				</port>
			</input>
			<output>
				<port id="2" precision="FP32" names="model/tfc3/tf_conv_2/Identity:0,model/tfc3/tf_conv_2/conv2d_2/BiasAdd:0,model/tfc3/tf_conv_2/mul:0">
					<dim>1</dim>
					<dim>16</dim>
					<dim>128</dim>
					<dim>160</dim>
				</port>
			</output>
		</layer>
		<layer id="23" name="model/tfc3/tf_conv_2/mul_1" type="Swish" version="opset4">
			<rt_info>
				<attribute name="fused_names" version="0" value="model/tfc3/tf_conv_2/Sigmoid, model/tfc3/tf_conv_2/mul_1"/>
			</rt_info>
			<input>
				<port id="0" precision="FP32">
					<dim>1</dim>
					<dim>16</dim>
					<dim>128</dim>
					<dim>160</dim>
				</port>
			</input>
			<output>
				<port id="1" precision="FP32" names="model/tfc3/tf_conv_2/IdentityN:0,model/tfc3/tf_conv_2/mul_1:0">
					<dim>1</dim>
					<dim>16</dim>
					<dim>128</dim>
					<dim>160</dim>
				</port>
			</output>
		</layer>
		<layer id="24" name="model/tfc3/sequential_2/tf_bottleneck/tf_conv_5/conv2d_5/Conv2D/ReadVariableOp_compressed" type="Const" version="opset1">
			<data element_type="f16" shape="16, 16, 1, 1" offset="13856" size="512"/>
			<output>
				<port id="0" precision="FP16">
					<dim>16</dim>
					<dim>16</dim>
					<dim>1</dim>
					<dim>1</dim>
				</port>
			</output>
		</layer>
		<layer id="25" name="model/tfc3/sequential_2/tf_bottleneck/tf_conv_5/conv2d_5/Conv2D/ReadVariableOp" type="Convert" version="opset1">
			<data destination_type="f32"/>
			<rt_info>
				<attribute name="decompression" version="0"/>
				<attribute name="fused_names" version="0" value="model/tfc3/sequential_2/tf_bottleneck/tf_conv_5/conv2d_5/Conv2D/ReadVariableOp"/>
			</rt_info>
			<input>
				<port id="0" precision="FP16">
					<dim>16</dim>
					<dim>16</dim>
					<dim>1</dim>
					<dim>1</dim>
				</port>
			</input>
			<output>
				<port id="1" precision="FP32" names="model/tfc3/sequential_2/tf_bottleneck/tf_conv_5/conv2d_5/Conv2D/ReadVariableOp:0">
					<dim>16</dim>
					<dim>16</dim>
					<dim>1</dim>
					<dim>1</dim>
				</port>
			</output>
		</layer>
		<layer id="26" name="model/tfc3/sequential_2/tf_bottleneck/tf_conv_5/conv2d_5/Conv2D" type="Convolution" version="opset1">
			<data strides="1, 1" dilations="1, 1" pads_begin="0, 0" pads_end="0, 0" auto_pad="same_upper"/>
			<rt_info>
				<attribute name="fused_names" version="0" value="model/tfc3/sequential_2/tf_bottleneck/tf_conv_5/conv2d_5/Conv2D"/>
			</rt_info>
			<input>
				<port id="0" precision="FP32">
					<dim>1</dim>
					<dim>16</dim>
					<dim>128</dim>
					<dim>160</dim>
				</port>
				<port id="1" precision="FP32">
					<dim>16</dim>
					<dim>16</dim>
					<dim>1</dim>
					<dim>1</dim>
				</port>
			</input>
			<output>
				<port id="2" precision="FP32" names="model/tfc3/sequential_2/tf_bottleneck/tf_conv_5/conv2d_5/Conv2D:0">
					<dim>1</dim>
					<dim>16</dim>
					<dim>128</dim>
					<dim>160</dim>
				</port>
			</output>
		</layer>
		<layer id="27" name="model/tfc3/sequential_2/tf_bottleneck/tf_conv_5/conv2d_5/BiasAdd/ReadVariableOp_compressed" type="Const" version="opset1">
			<data element_type="f16" shape="1, 16, 1, 1" offset="14368" size="32"/>
			<output>
				<port id="0" precision="FP16">
					<dim>1</dim>
					<dim>16</dim>
					<dim>1</dim>
					<dim>1</dim>
				</port>
			</output>
		</layer>
		<layer id="28" name="model/tfc3/sequential_2/tf_bottleneck/tf_conv_5/conv2d_5/BiasAdd/ReadVariableOp" type="Convert" version="opset1">
			<data destination_type="f32"/>
			<rt_info>
				<attribute name="decompression" version="0"/>
				<attribute name="fused_names" version="0" value="model/tfc3/sequential_2/tf_bottleneck/tf_conv_5/conv2d_5/BiasAdd/ReadVariableOp"/>
			</rt_info>
			<input>
				<port id="0" precision="FP16">
					<dim>1</dim>
					<dim>16</dim>
					<dim>1</dim>
					<dim>1</dim>
				</port>
			</input>
			<output>
				<port id="1" precision="FP32" names="model/tfc3/sequential_2/tf_bottleneck/tf_conv_5/conv2d_5/BiasAdd/ReadVariableOp:0">
					<dim>1</dim>
					<dim>16</dim>
					<dim>1</dim>
					<dim>1</dim>
				</port>
			</output>
		</layer>
		<layer id="29" name="model/tfc3/sequential_2/tf_bottleneck/tf_conv_5/conv2d_5/BiasAdd/Add" type="Add" version="opset1">
			<data auto_broadcast="numpy"/>
			<rt_info>
				<attribute name="fused_names" version="0" value="model/tfc3/sequential_2/tf_bottleneck/tf_conv_5/conv2d_5/BiasAdd/Add, model/tfc3/sequential_2/tf_bottleneck/tf_conv_5/mul"/>
			</rt_info>
			<input>
				<port id="0" precision="FP32">
					<dim>1</dim>
					<dim>16</dim>
					<dim>128</dim>
					<dim>160</dim>
				</port>
				<port id="1" precision="FP32">
					<dim>1</dim>
					<dim>16</dim>
					<dim>1</dim>
					<dim>1</dim>
				</port>
			</input>
			<output>
				<port id="2" precision="FP32" names="model/tfc3/sequential_2/tf_bottleneck/tf_conv_5/Identity:0,model/tfc3/sequential_2/tf_bottleneck/tf_conv_5/conv2d_5/BiasAdd:0,model/tfc3/sequential_2/tf_bottleneck/tf_conv_5/mul:0">
					<dim>1</dim>
					<dim>16</dim>
					<dim>128</dim>
					<dim>160</dim>
				</port>
			</output>
		</layer>
		<layer id="30" name="model/tfc3/sequential_2/tf_bottleneck/tf_conv_5/mul_1" type="Swish" version="opset4">
			<rt_info>
				<attribute name="fused_names" version="0" value="model/tfc3/sequential_2/tf_bottleneck/tf_conv_5/Sigmoid, model/tfc3/sequential_2/tf_bottleneck/tf_conv_5/mul_1"/>
			</rt_info>
			<input>
				<port id="0" precision="FP32">
					<dim>1</dim>
					<dim>16</dim>
					<dim>128</dim>
					<dim>160</dim>
				</port>
			</input>
			<output>
				<port id="1" precision="FP32" names="model/tfc3/sequential_2/tf_bottleneck/tf_conv_5/IdentityN:0,model/tfc3/sequential_2/tf_bottleneck/tf_conv_5/mul_1:0">
					<dim>1</dim>
					<dim>16</dim>
					<dim>128</dim>
					<dim>160</dim>
				</port>
			</output>
		</layer>
		<layer id="31" name="model/tfc3/sequential_2/tf_bottleneck/tf_conv_6/conv2d_6/Conv2D/ReadVariableOp_compressed" type="Const" version="opset1">
			<data element_type="f16" shape="16, 16, 3, 3" offset="14400" size="4608"/>
			<output>
				<port id="0" precision="FP16">
					<dim>16</dim>
					<dim>16</dim>
					<dim>3</dim>
					<dim>3</dim>
				</port>
			</output>
		</layer>
		<layer id="32" name="model/tfc3/sequential_2/tf_bottleneck/tf_conv_6/conv2d_6/Conv2D/ReadVariableOp" type="Convert" version="opset1">
			<data destination_type="f32"/>
			<rt_info>
				<attribute name="decompression" version="0"/>
				<attribute name="fused_names" version="0" value="model/tfc3/sequential_2/tf_bottleneck/tf_conv_6/conv2d_6/Conv2D/ReadVariableOp"/>
			</rt_info>
			<input>
				<port id="0" precision="FP16">
					<dim>16</dim>
					<dim>16</dim>
					<dim>3</dim>
					<dim>3</dim>
				</port>
			</input>
			<output>
				<port id="1" precision="FP32" names="model/tfc3/sequential_2/tf_bottleneck/tf_conv_6/conv2d_6/Conv2D/ReadVariableOp:0">
					<dim>16</dim>
					<dim>16</dim>
					<dim>3</dim>
					<dim>3</dim>
				</port>
			</output>
		</layer>
		<layer id="33" name="model/tfc3/sequential_2/tf_bottleneck/tf_conv_6/conv2d_6/Conv2D" type="Convolution" version="opset1">
			<data strides="1, 1" dilations="1, 1" pads_begin="0, 0" pads_end="0, 0" auto_pad="same_upper"/>
			<rt_info>
				<attribute name="fused_names" version="0" value="model/tfc3/sequential_2/tf_bottleneck/tf_conv_6/conv2d_6/Conv2D"/>
			</rt_info>
			<input>
				<port id="0" precision="FP32">
					<dim>1</dim>
					<dim>16</dim>
					<dim>128</dim>
					<dim>160</dim>
				</port>
				<port id="1" precision="FP32">
					<dim>16</dim>
					<dim>16</dim>
					<dim>3</dim>
					<dim>3</dim>
				</port>
			</input>
			<output>
				<port id="2" precision="FP32" names="model/tfc3/sequential_2/tf_bottleneck/tf_conv_6/conv2d_6/Conv2D:0">
					<dim>1</dim>
					<dim>16</dim>
					<dim>128</dim>
					<dim>160</dim>
				</port>
			</output>
		</layer>
		<layer id="34" name="model/tfc3/sequential_2/tf_bottleneck/tf_conv_6/conv2d_6/BiasAdd/ReadVariableOp_compressed" type="Const" version="opset1">
			<data element_type="f16" shape="1, 16, 1, 1" offset="19008" size="32"/>
			<output>
				<port id="0" precision="FP16">
					<dim>1</dim>
					<dim>16</dim>
					<dim>1</dim>
					<dim>1</dim>
				</port>
			</output>
		</layer>
		<layer id="35" name="model/tfc3/sequential_2/tf_bottleneck/tf_conv_6/conv2d_6/BiasAdd/ReadVariableOp" type="Convert" version="opset1">
			<data destination_type="f32"/>
			<rt_info>
				<attribute name="decompression" version="0"/>
				<attribute name="fused_names" version="0" value="model/tfc3/sequential_2/tf_bottleneck/tf_conv_6/conv2d_6/BiasAdd/ReadVariableOp"/>
			</rt_info>
			<input>
				<port id="0" precision="FP16">
					<dim>1</dim>
					<dim>16</dim>
					<dim>1</dim>
					<dim>1</dim>
				</port>
			</input>
			<output>
				<port id="1" precision="FP32" names="model/tfc3/sequential_2/tf_bottleneck/tf_conv_6/conv2d_6/BiasAdd/ReadVariableOp:0">
					<dim>1</dim>
					<dim>16</dim>
					<dim>1</dim>
					<dim>1</dim>
				</port>
			</output>
		</layer>
		<layer id="36" name="model/tfc3/sequential_2/tf_bottleneck/tf_conv_6/conv2d_6/BiasAdd/Add" type="Add" version="opset1">
			<data auto_broadcast="numpy"/>
			<rt_info>
				<attribute name="fused_names" version="0" value="model/tfc3/sequential_2/tf_bottleneck/tf_conv_6/conv2d_6/BiasAdd/Add, model/tfc3/sequential_2/tf_bottleneck/tf_conv_6/mul"/>
			</rt_info>
			<input>
				<port id="0" precision="FP32">
					<dim>1</dim>
					<dim>16</dim>
					<dim>128</dim>
					<dim>160</dim>
				</port>
				<port id="1" precision="FP32">
					<dim>1</dim>
					<dim>16</dim>
					<dim>1</dim>
					<dim>1</dim>
				</port>
			</input>
			<output>
				<port id="2" precision="FP32" names="model/tfc3/sequential_2/tf_bottleneck/tf_conv_6/Identity:0,model/tfc3/sequential_2/tf_bottleneck/tf_conv_6/conv2d_6/BiasAdd:0,model/tfc3/sequential_2/tf_bottleneck/tf_conv_6/mul:0">
					<dim>1</dim>
					<dim>16</dim>
					<dim>128</dim>
					<dim>160</dim>
				</port>
			</output>
		</layer>
		<layer id="37" name="model/tfc3/sequential_2/tf_bottleneck/tf_conv_6/mul_1" type="Swish" version="opset4">
			<rt_info>
				<attribute name="fused_names" version="0" value="model/tfc3/sequential_2/tf_bottleneck/tf_conv_6/Sigmoid, model/tfc3/sequential_2/tf_bottleneck/tf_conv_6/mul_1"/>
			</rt_info>
			<input>
				<port id="0" precision="FP32">
					<dim>1</dim>
					<dim>16</dim>
					<dim>128</dim>
					<dim>160</dim>
				</port>
			</input>
			<output>
				<port id="1" precision="FP32" names="model/tfc3/sequential_2/tf_bottleneck/tf_conv_6/IdentityN:0,model/tfc3/sequential_2/tf_bottleneck/tf_conv_6/mul_1:0">
					<dim>1</dim>
					<dim>16</dim>
					<dim>128</dim>
					<dim>160</dim>
				</port>
			</output>
		</layer>
		<layer id="38" name="model/tfc3/sequential_2/tf_bottleneck/add" type="Add" version="opset1">
			<data auto_broadcast="numpy"/>
			<rt_info>
				<attribute name="fused_names" version="0" value="model/tfc3/sequential_2/tf_bottleneck/add"/>
			</rt_info>
			<input>
				<port id="0" precision="FP32">
					<dim>1</dim>
					<dim>16</dim>
					<dim>128</dim>
					<dim>160</dim>
				</port>
				<port id="1" precision="FP32">
					<dim>1</dim>
					<dim>16</dim>
					<dim>128</dim>
					<dim>160</dim>
				</port>
			</input>
			<output>
				<port id="2" precision="FP32" names="model/tfc3/sequential_2/tf_bottleneck/add:0">
					<dim>1</dim>
					<dim>16</dim>
					<dim>128</dim>
					<dim>160</dim>
				</port>
			</output>
		</layer>
		<layer id="39" name="model/tfc3/tf_conv_3/conv2d_3/Conv2D/ReadVariableOp_compressed" type="Const" version="opset1">
			<data element_type="f16" shape="16, 32, 1, 1" offset="19040" size="1024"/>
			<output>
				<port id="0" precision="FP16">
					<dim>16</dim>
					<dim>32</dim>
					<dim>1</dim>
					<dim>1</dim>
				</port>
			</output>
		</layer>
		<layer id="40" name="model/tfc3/tf_conv_3/conv2d_3/Conv2D/ReadVariableOp" type="Convert" version="opset1">
			<data destination_type="f32"/>
			<rt_info>
				<attribute name="decompression" version="0"/>
				<attribute name="fused_names" version="0" value="model/tfc3/tf_conv_3/conv2d_3/Conv2D/ReadVariableOp"/>
			</rt_info>
			<input>
				<port id="0" precision="FP16">
					<dim>16</dim>
					<dim>32</dim>
					<dim>1</dim>
					<dim>1</dim>
				</port>
			</input>
			<output>
				<port id="1" precision="FP32" names="model/tfc3/tf_conv_3/conv2d_3/Conv2D/ReadVariableOp:0">
					<dim>16</dim>
					<dim>32</dim>
					<dim>1</dim>
					<dim>1</dim>
				</port>
			</output>
		</layer>
		<layer id="41" name="model/tfc3/tf_conv_3/conv2d_3/Conv2D" type="Convolution" version="opset1">
			<data strides="1, 1" dilations="1, 1" pads_begin="0, 0" pads_end="0, 0" auto_pad="same_upper"/>
			<rt_info>
				<attribute name="fused_names" version="0" value="model/tfc3/tf_conv_3/conv2d_3/Conv2D"/>
			</rt_info>
			<input>
				<port id="0" precision="FP32">
					<dim>1</dim>
					<dim>32</dim>
					<dim>128</dim>
					<dim>160</dim>
				</port>
				<port id="1" precision="FP32">
					<dim>16</dim>
					<dim>32</dim>
					<dim>1</dim>
					<dim>1</dim>
				</port>
			</input>
			<output>
				<port id="2" precision="FP32" names="model/tfc3/tf_conv_3/conv2d_3/Conv2D:0">
					<dim>1</dim>
					<dim>16</dim>
					<dim>128</dim>
					<dim>160</dim>
				</port>
			</output>
		</layer>
		<layer id="42" name="model/tfc3/tf_conv_3/conv2d_3/BiasAdd/ReadVariableOp_compressed" type="Const" version="opset1">
			<data element_type="f16" shape="1, 16, 1, 1" offset="20064" size="32"/>
			<output>
				<port id="0" precision="FP16">
					<dim>1</dim>
					<dim>16</dim>
					<dim>1</dim>
					<dim>1</dim>
				</port>
			</output>
		</layer>
		<layer id="43" name="model/tfc3/tf_conv_3/conv2d_3/BiasAdd/ReadVariableOp" type="Convert" version="opset1">
			<data destination_type="f32"/>
			<rt_info>
				<attribute name="decompression" version="0"/>
				<attribute name="fused_names" version="0" value="model/tfc3/tf_conv_3/conv2d_3/BiasAdd/ReadVariableOp"/>
			</rt_info>
			<input>
				<port id="0" precision="FP16">
					<dim>1</dim>
					<dim>16</dim>
					<dim>1</dim>
					<dim>1</dim>
				</port>
			</input>
			<output>
				<port id="1" precision="FP32" names="model/tfc3/tf_conv_3/conv2d_3/BiasAdd/ReadVariableOp:0">
					<dim>1</dim>
					<dim>16</dim>
					<dim>1</dim>
					<dim>1</dim>
				</port>
			</output>
		</layer>
		<layer id="44" name="model/tfc3/tf_conv_3/conv2d_3/BiasAdd/Add" type="Add" version="opset1">
			<data auto_broadcast="numpy"/>
			<rt_info>
				<attribute name="fused_names" version="0" value="model/tfc3/tf_conv_3/conv2d_3/BiasAdd/Add, model/tfc3/tf_conv_3/mul"/>
			</rt_info>
			<input>
				<port id="0" precision="FP32">
					<dim>1</dim>
					<dim>16</dim>
					<dim>128</dim>
					<dim>160</dim>
				</port>
				<port id="1" precision="FP32">
					<dim>1</dim>
					<dim>16</dim>
					<dim>1</dim>
					<dim>1</dim>
				</port>
			</input>
			<output>
				<port id="2" precision="FP32" names="model/tfc3/tf_conv_3/Identity:0,model/tfc3/tf_conv_3/conv2d_3/BiasAdd:0,model/tfc3/tf_conv_3/mul:0">
					<dim>1</dim>
					<dim>16</dim>
					<dim>128</dim>
					<dim>160</dim>
				</port>
			</output>
		</layer>
		<layer id="45" name="model/tfc3/tf_conv_3/mul_1" type="Swish" version="opset4">
			<rt_info>
				<attribute name="fused_names" version="0" value="model/tfc3/tf_conv_3/Sigmoid, model/tfc3/tf_conv_3/mul_1"/>
			</rt_info>
			<input>
				<port id="0" precision="FP32">
					<dim>1</dim>
					<dim>16</dim>
					<dim>128</dim>
					<dim>160</dim>
				</port>
			</input>
			<output>
				<port id="1" precision="FP32" names="model/tfc3/tf_conv_3/IdentityN:0,model/tfc3/tf_conv_3/mul_1:0">
					<dim>1</dim>
					<dim>16</dim>
					<dim>128</dim>
					<dim>160</dim>
				</port>
			</output>
		</layer>
		<layer id="46" name="model/tfc3/concat" type="Concat" version="opset1">
			<data axis="1"/>
			<rt_info>
				<attribute name="fused_names" version="0" value="model/tfc3/concat"/>
			</rt_info>
			<input>
				<port id="0" precision="FP32">
					<dim>1</dim>
					<dim>16</dim>
					<dim>128</dim>
					<dim>160</dim>
				</port>
				<port id="1" precision="FP32">
					<dim>1</dim>
					<dim>16</dim>
					<dim>128</dim>
					<dim>160</dim>
				</port>
			</input>
			<output>
				<port id="2" precision="FP32" names="model/tfc3/concat:0">
					<dim>1</dim>
					<dim>32</dim>
					<dim>128</dim>
					<dim>160</dim>
				</port>
			</output>
		</layer>
		<layer id="47" name="model/tfc3/tf_conv_4/conv2d_4/Conv2D/ReadVariableOp_compressed" type="Const" version="opset1">
			<data element_type="f16" shape="32, 32, 1, 1" offset="20096" size="2048"/>
			<output>
				<port id="0" precision="FP16">
					<dim>32</dim>
					<dim>32</dim>
					<dim>1</dim>
					<dim>1</dim>
				</port>
			</output>
		</layer>
		<layer id="48" name="model/tfc3/tf_conv_4/conv2d_4/Conv2D/ReadVariableOp" type="Convert" version="opset1">
			<data destination_type="f32"/>
			<rt_info>
				<attribute name="decompression" version="0"/>
				<attribute name="fused_names" version="0" value="model/tfc3/tf_conv_4/conv2d_4/Conv2D/ReadVariableOp"/>
			</rt_info>
			<input>
				<port id="0" precision="FP16">
					<dim>32</dim>
					<dim>32</dim>
					<dim>1</dim>
					<dim>1</dim>
				</port>
			</input>
			<output>
				<port id="1" precision="FP32" names="model/tfc3/tf_conv_4/conv2d_4/Conv2D/ReadVariableOp:0">
					<dim>32</dim>
					<dim>32</dim>
					<dim>1</dim>
					<dim>1</dim>
				</port>
			</output>
		</layer>
		<layer id="49" name="model/tfc3/tf_conv_4/conv2d_4/Conv2D" type="Convolution" version="opset1">
			<data strides="1, 1" dilations="1, 1" pads_begin="0, 0" pads_end="0, 0" auto_pad="same_upper"/>
			<rt_info>
				<attribute name="fused_names" version="0" value="model/tfc3/tf_conv_4/conv2d_4/Conv2D"/>
			</rt_info>
			<input>
				<port id="0" precision="FP32">
					<dim>1</dim>
					<dim>32</dim>
					<dim>128</dim>
					<dim>160</dim>
				</port>
				<port id="1" precision="FP32">
					<dim>32</dim>
					<dim>32</dim>
					<dim>1</dim>
					<dim>1</dim>
				</port>
			</input>
			<output>
				<port id="2" precision="FP32" names="model/tfc3/tf_conv_4/conv2d_4/Conv2D:0">
					<dim>1</dim>
					<dim>32</dim>
					<dim>128</dim>
					<dim>160</dim>
				</port>
			</output>
		</layer>
		<layer id="50" name="model/tfc3/tf_conv_4/conv2d_4/BiasAdd/ReadVariableOp_compressed" type="Const" version="opset1">
			<data element_type="f16" shape="1, 32, 1, 1" offset="22144" size="64"/>
			<output>
				<port id="0" precision="FP16">
					<dim>1</dim>
					<dim>32</dim>
					<dim>1</dim>
					<dim>1</dim>
				</port>
			</output>
		</layer>
		<layer id="51" name="model/tfc3/tf_conv_4/conv2d_4/BiasAdd/ReadVariableOp" type="Convert" version="opset1">
			<data destination_type="f32"/>
			<rt_info>
				<attribute name="decompression" version="0"/>
				<attribute name="fused_names" version="0" value="model/tfc3/tf_conv_4/conv2d_4/BiasAdd/ReadVariableOp"/>
			</rt_info>
			<input>
				<port id="0" precision="FP16">
					<dim>1</dim>
					<dim>32</dim>
					<dim>1</dim>
					<dim>1</dim>
				</port>
			</input>
			<output>
				<port id="1" precision="FP32" names="model/tfc3/tf_conv_4/conv2d_4/BiasAdd/ReadVariableOp:0">
					<dim>1</dim>
					<dim>32</dim>
					<dim>1</dim>
					<dim>1</dim>
				</port>
			</output>
		</layer>
		<layer id="52" name="model/tfc3/tf_conv_4/conv2d_4/BiasAdd/Add" type="Add" version="opset1">
			<data auto_broadcast="numpy"/>
			<rt_info>
				<attribute name="fused_names" version="0" value="model/tfc3/tf_conv_4/conv2d_4/BiasAdd/Add, model/tfc3/tf_conv_4/mul"/>
			</rt_info>
			<input>
				<port id="0" precision="FP32">
					<dim>1</dim>
					<dim>32</dim>
					<dim>128</dim>
					<dim>160</dim>
				</port>
				<port id="1" precision="FP32">
					<dim>1</dim>
					<dim>32</dim>
					<dim>1</dim>
					<dim>1</dim>
				</port>
			</input>
			<output>
				<port id="2" precision="FP32" names="model/tfc3/tf_conv_4/Identity:0,model/tfc3/tf_conv_4/conv2d_4/BiasAdd:0,model/tfc3/tf_conv_4/mul:0">
					<dim>1</dim>
					<dim>32</dim>
					<dim>128</dim>
					<dim>160</dim>
				</port>
			</output>
		</layer>
		<layer id="53" name="model/tfc3/tf_conv_4/mul_1" type="Swish" version="opset4">
			<rt_info>
				<attribute name="fused_names" version="0" value="model/tfc3/tf_conv_4/Sigmoid, model/tfc3/tf_conv_4/mul_1"/>
			</rt_info>
			<input>
				<port id="0" precision="FP32">
					<dim>1</dim>
					<dim>32</dim>
					<dim>128</dim>
					<dim>160</dim>
				</port>
			</input>
			<output>
				<port id="1" precision="FP32" names="model/tfc3/tf_conv_4/IdentityN:0,model/tfc3/tf_conv_4/mul_1:0">
					<dim>1</dim>
					<dim>32</dim>
					<dim>128</dim>
					<dim>160</dim>
				</port>
			</output>
		</layer>
		<layer id="54" name="model/tf_conv_7/sequential_3/conv2d_7/Conv2D/ReadVariableOp_compressed" type="Const" version="opset1">
			<data element_type="f16" shape="64, 32, 3, 3" offset="22208" size="36864"/>
			<output>
				<port id="0" precision="FP16">
					<dim>64</dim>
					<dim>32</dim>
					<dim>3</dim>
					<dim>3</dim>
				</port>
			</output>
		</layer>
		<layer id="55" name="model/tf_conv_7/sequential_3/conv2d_7/Conv2D/ReadVariableOp" type="Convert" version="opset1">
			<data destination_type="f32"/>
			<rt_info>
				<attribute name="decompression" version="0"/>
				<attribute name="fused_names" version="0" value="model/tf_conv_7/sequential_3/conv2d_7/Conv2D/ReadVariableOp"/>
			</rt_info>
			<input>
				<port id="0" precision="FP16">
					<dim>64</dim>
					<dim>32</dim>
					<dim>3</dim>
					<dim>3</dim>
				</port>
			</input>
			<output>
				<port id="1" precision="FP32" names="model/tf_conv_7/sequential_3/conv2d_7/Conv2D/ReadVariableOp:0">
					<dim>64</dim>
					<dim>32</dim>
					<dim>3</dim>
					<dim>3</dim>
				</port>
			</output>
		</layer>
		<layer id="56" name="model/tf_conv_7/sequential_3/conv2d_7/Conv2D" type="Convolution" version="opset1">
			<data strides="2, 2" dilations="1, 1" pads_begin="1, 1" pads_end="1, 1" auto_pad="explicit"/>
			<rt_info>
				<attribute name="fused_names" version="0" value="model/tf_conv_7/sequential_3/conv2d_7/Conv2D, model/tf_conv_7/sequential_3/tf_pad_2/Pad"/>
			</rt_info>
			<input>
				<port id="0" precision="FP32">
					<dim>1</dim>
					<dim>32</dim>
					<dim>128</dim>
					<dim>160</dim>
				</port>
				<port id="1" precision="FP32">
					<dim>64</dim>
					<dim>32</dim>
					<dim>3</dim>
					<dim>3</dim>
				</port>
			</input>
			<output>
				<port id="2" precision="FP32" names="model/tf_conv_7/sequential_3/conv2d_7/Conv2D:0">
					<dim>1</dim>
					<dim>64</dim>
					<dim>64</dim>
					<dim>80</dim>
				</port>
			</output>
		</layer>
		<layer id="57" name="model/tf_conv_7/sequential_3/conv2d_7/BiasAdd/ReadVariableOp_compressed" type="Const" version="opset1">
			<data element_type="f16" shape="1, 64, 1, 1" offset="59072" size="128"/>
			<output>
				<port id="0" precision="FP16">
					<dim>1</dim>
					<dim>64</dim>
					<dim>1</dim>
					<dim>1</dim>
				</port>
			</output>
		</layer>
		<layer id="58" name="model/tf_conv_7/sequential_3/conv2d_7/BiasAdd/ReadVariableOp" type="Convert" version="opset1">
			<data destination_type="f32"/>
			<rt_info>
				<attribute name="decompression" version="0"/>
				<attribute name="fused_names" version="0" value="model/tf_conv_7/sequential_3/conv2d_7/BiasAdd/ReadVariableOp"/>
			</rt_info>
			<input>
				<port id="0" precision="FP16">
					<dim>1</dim>
					<dim>64</dim>
					<dim>1</dim>
					<dim>1</dim>
				</port>
			</input>
			<output>
				<port id="1" precision="FP32" names="model/tf_conv_7/sequential_3/conv2d_7/BiasAdd/ReadVariableOp:0">
					<dim>1</dim>
					<dim>64</dim>
					<dim>1</dim>
					<dim>1</dim>
				</port>
			</output>
		</layer>
		<layer id="59" name="model/tf_conv_7/sequential_3/conv2d_7/BiasAdd/Add" type="Add" version="opset1">
			<data auto_broadcast="numpy"/>
			<rt_info>
				<attribute name="fused_names" version="0" value="model/tf_conv_7/mul, model/tf_conv_7/sequential_3/conv2d_7/BiasAdd/Add"/>
			</rt_info>
			<input>
				<port id="0" precision="FP32">
					<dim>1</dim>
					<dim>64</dim>
					<dim>64</dim>
					<dim>80</dim>
				</port>
				<port id="1" precision="FP32">
					<dim>1</dim>
					<dim>64</dim>
					<dim>1</dim>
					<dim>1</dim>
				</port>
			</input>
			<output>
				<port id="2" precision="FP32" names="model/tf_conv_7/Identity:0,model/tf_conv_7/mul:0,model/tf_conv_7/sequential_3/conv2d_7/BiasAdd:0">
					<dim>1</dim>
					<dim>64</dim>
					<dim>64</dim>
					<dim>80</dim>
				</port>
			</output>
		</layer>
		<layer id="60" name="model/tf_conv_7/mul_1" type="Swish" version="opset4">
			<rt_info>
				<attribute name="fused_names" version="0" value="model/tf_conv_7/Sigmoid, model/tf_conv_7/mul_1"/>
			</rt_info>
			<input>
				<port id="0" precision="FP32">
					<dim>1</dim>
					<dim>64</dim>
					<dim>64</dim>
					<dim>80</dim>
				</port>
			</input>
			<output>
				<port id="1" precision="FP32" names="model/tf_conv_7/IdentityN:0,model/tf_conv_7/mul_1:0">
					<dim>1</dim>
					<dim>64</dim>
					<dim>64</dim>
					<dim>80</dim>
				</port>
			</output>
		</layer>
		<layer id="61" name="model/tfc3_1/tf_conv_8/conv2d_8/Conv2D/ReadVariableOp_compressed" type="Const" version="opset1">
			<data element_type="f16" shape="32, 64, 1, 1" offset="59200" size="4096"/>
			<output>
				<port id="0" precision="FP16">
					<dim>32</dim>
					<dim>64</dim>
					<dim>1</dim>
					<dim>1</dim>
				</port>
			</output>
		</layer>
		<layer id="62" name="model/tfc3_1/tf_conv_8/conv2d_8/Conv2D/ReadVariableOp" type="Convert" version="opset1">
			<data destination_type="f32"/>
			<rt_info>
				<attribute name="decompression" version="0"/>
				<attribute name="fused_names" version="0" value="model/tfc3_1/tf_conv_8/conv2d_8/Conv2D/ReadVariableOp"/>
			</rt_info>
			<input>
				<port id="0" precision="FP16">
					<dim>32</dim>
					<dim>64</dim>
					<dim>1</dim>
					<dim>1</dim>
				</port>
			</input>
			<output>
				<port id="1" precision="FP32" names="model/tfc3_1/tf_conv_8/conv2d_8/Conv2D/ReadVariableOp:0">
					<dim>32</dim>
					<dim>64</dim>
					<dim>1</dim>
					<dim>1</dim>
				</port>
			</output>
		</layer>
		<layer id="63" name="model/tfc3_1/tf_conv_8/conv2d_8/Conv2D" type="Convolution" version="opset1">
			<data strides="1, 1" dilations="1, 1" pads_begin="0, 0" pads_end="0, 0" auto_pad="same_upper"/>
			<rt_info>
				<attribute name="fused_names" version="0" value="model/tfc3_1/tf_conv_8/conv2d_8/Conv2D"/>
			</rt_info>
			<input>
				<port id="0" precision="FP32">
					<dim>1</dim>
					<dim>64</dim>
					<dim>64</dim>
					<dim>80</dim>
				</port>
				<port id="1" precision="FP32">
					<dim>32</dim>
					<dim>64</dim>
					<dim>1</dim>
					<dim>1</dim>
				</port>
			</input>
			<output>
				<port id="2" precision="FP32" names="model/tfc3_1/tf_conv_8/conv2d_8/Conv2D:0">
					<dim>1</dim>
					<dim>32</dim>
					<dim>64</dim>
					<dim>80</dim>
				</port>
			</output>
		</layer>
		<layer id="64" name="model/tfc3_1/tf_conv_8/conv2d_8/BiasAdd/ReadVariableOp_compressed" type="Const" version="opset1">
			<data element_type="f16" shape="1, 32, 1, 1" offset="63296" size="64"/>
			<output>
				<port id="0" precision="FP16">
					<dim>1</dim>
					<dim>32</dim>
					<dim>1</dim>
					<dim>1</dim>
				</port>
			</output>
		</layer>
		<layer id="65" name="model/tfc3_1/tf_conv_8/conv2d_8/BiasAdd/ReadVariableOp" type="Convert" version="opset1">
			<data destination_type="f32"/>
			<rt_info>
				<attribute name="decompression" version="0"/>
				<attribute name="fused_names" version="0" value="model/tfc3_1/tf_conv_8/conv2d_8/BiasAdd/ReadVariableOp"/>
			</rt_info>
			<input>
				<port id="0" precision="FP16">
					<dim>1</dim>
					<dim>32</dim>
					<dim>1</dim>
					<dim>1</dim>
				</port>
			</input>
			<output>
				<port id="1" precision="FP32" names="model/tfc3_1/tf_conv_8/conv2d_8/BiasAdd/ReadVariableOp:0">
					<dim>1</dim>
					<dim>32</dim>
					<dim>1</dim>
					<dim>1</dim>
				</port>
			</output>
		</layer>
		<layer id="66" name="model/tfc3_1/tf_conv_8/conv2d_8/BiasAdd/Add" type="Add" version="opset1">
			<data auto_broadcast="numpy"/>
			<rt_info>
				<attribute name="fused_names" version="0" value="model/tfc3_1/tf_conv_8/conv2d_8/BiasAdd/Add, model/tfc3_1/tf_conv_8/mul"/>
			</rt_info>
			<input>
				<port id="0" precision="FP32">
					<dim>1</dim>
					<dim>32</dim>
					<dim>64</dim>
					<dim>80</dim>
				</port>
				<port id="1" precision="FP32">
					<dim>1</dim>
					<dim>32</dim>
					<dim>1</dim>
					<dim>1</dim>
				</port>
			</input>
			<output>
				<port id="2" precision="FP32" names="model/tfc3_1/tf_conv_8/Identity:0,model/tfc3_1/tf_conv_8/conv2d_8/BiasAdd:0,model/tfc3_1/tf_conv_8/mul:0">
					<dim>1</dim>
					<dim>32</dim>
					<dim>64</dim>
					<dim>80</dim>
				</port>
			</output>
		</layer>
		<layer id="67" name="model/tfc3_1/tf_conv_8/mul_1" type="Swish" version="opset4">
			<rt_info>
				<attribute name="fused_names" version="0" value="model/tfc3_1/tf_conv_8/Sigmoid, model/tfc3_1/tf_conv_8/mul_1"/>
			</rt_info>
			<input>
				<port id="0" precision="FP32">
					<dim>1</dim>
					<dim>32</dim>
					<dim>64</dim>
					<dim>80</dim>
				</port>
			</input>
			<output>
				<port id="1" precision="FP32" names="model/tfc3_1/tf_conv_8/IdentityN:0,model/tfc3_1/tf_conv_8/mul_1:0">
					<dim>1</dim>
					<dim>32</dim>
					<dim>64</dim>
					<dim>80</dim>
				</port>
			</output>
		</layer>
		<layer id="68" name="model/tfc3_1/sequential_4/tf_bottleneck_1/tf_conv_11/conv2d_11/Conv2D/ReadVariableOp_compressed" type="Const" version="opset1">
			<data element_type="f16" shape="32, 32, 1, 1" offset="63360" size="2048"/>
			<output>
				<port id="0" precision="FP16">
					<dim>32</dim>
					<dim>32</dim>
					<dim>1</dim>
					<dim>1</dim>
				</port>
			</output>
		</layer>
		<layer id="69" name="model/tfc3_1/sequential_4/tf_bottleneck_1/tf_conv_11/conv2d_11/Conv2D/ReadVariableOp" type="Convert" version="opset1">
			<data destination_type="f32"/>
			<rt_info>
				<attribute name="decompression" version="0"/>
				<attribute name="fused_names" version="0" value="model/tfc3_1/sequential_4/tf_bottleneck_1/tf_conv_11/conv2d_11/Conv2D/ReadVariableOp"/>
			</rt_info>
			<input>
				<port id="0" precision="FP16">
					<dim>32</dim>
					<dim>32</dim>
					<dim>1</dim>
					<dim>1</dim>
				</port>
			</input>
			<output>
				<port id="1" precision="FP32" names="model/tfc3_1/sequential_4/tf_bottleneck_1/tf_conv_11/conv2d_11/Conv2D/ReadVariableOp:0">
					<dim>32</dim>
					<dim>32</dim>
					<dim>1</dim>
					<dim>1</dim>
				</port>
			</output>
		</layer>
		<layer id="70" name="model/tfc3_1/sequential_4/tf_bottleneck_1/tf_conv_11/conv2d_11/Conv2D" type="Convolution" version="opset1">
			<data strides="1, 1" dilations="1, 1" pads_begin="0, 0" pads_end="0, 0" auto_pad="same_upper"/>
			<rt_info>
				<attribute name="fused_names" version="0" value="model/tfc3_1/sequential_4/tf_bottleneck_1/tf_conv_11/conv2d_11/Conv2D"/>
			</rt_info>
			<input>
				<port id="0" precision="FP32">
					<dim>1</dim>
					<dim>32</dim>
					<dim>64</dim>
					<dim>80</dim>
				</port>
				<port id="1" precision="FP32">
					<dim>32</dim>
					<dim>32</dim>
					<dim>1</dim>
					<dim>1</dim>
				</port>
			</input>
			<output>
				<port id="2" precision="FP32" names="model/tfc3_1/sequential_4/tf_bottleneck_1/tf_conv_11/conv2d_11/Conv2D:0">
					<dim>1</dim>
					<dim>32</dim>
					<dim>64</dim>
					<dim>80</dim>
				</port>
			</output>
		</layer>
		<layer id="71" name="model/tfc3_1/sequential_4/tf_bottleneck_1/tf_conv_11/conv2d_11/BiasAdd/ReadVariableOp_compressed" type="Const" version="opset1">
			<data element_type="f16" shape="1, 32, 1, 1" offset="65408" size="64"/>
			<output>
				<port id="0" precision="FP16">
					<dim>1</dim>
					<dim>32</dim>
					<dim>1</dim>
					<dim>1</dim>
				</port>
			</output>
		</layer>
		<layer id="72" name="model/tfc3_1/sequential_4/tf_bottleneck_1/tf_conv_11/conv2d_11/BiasAdd/ReadVariableOp" type="Convert" version="opset1">
			<data destination_type="f32"/>
			<rt_info>
				<attribute name="decompression" version="0"/>
				<attribute name="fused_names" version="0" value="model/tfc3_1/sequential_4/tf_bottleneck_1/tf_conv_11/conv2d_11/BiasAdd/ReadVariableOp"/>
			</rt_info>
			<input>
				<port id="0" precision="FP16">
					<dim>1</dim>
					<dim>32</dim>
					<dim>1</dim>
					<dim>1</dim>
				</port>
			</input>
			<output>
				<port id="1" precision="FP32" names="model/tfc3_1/sequential_4/tf_bottleneck_1/tf_conv_11/conv2d_11/BiasAdd/ReadVariableOp:0">
					<dim>1</dim>
					<dim>32</dim>
					<dim>1</dim>
					<dim>1</dim>
				</port>
			</output>
		</layer>
		<layer id="73" name="model/tfc3_1/sequential_4/tf_bottleneck_1/tf_conv_11/conv2d_11/BiasAdd/Add" type="Add" version="opset1">
			<data auto_broadcast="numpy"/>
			<rt_info>
				<attribute name="fused_names" version="0" value="model/tfc3_1/sequential_4/tf_bottleneck_1/tf_conv_11/conv2d_11/BiasAdd/Add, model/tfc3_1/sequential_4/tf_bottleneck_1/tf_conv_11/mul"/>
			</rt_info>
			<input>
				<port id="0" precision="FP32">
					<dim>1</dim>
					<dim>32</dim>
					<dim>64</dim>
					<dim>80</dim>
				</port>
				<port id="1" precision="FP32">
					<dim>1</dim>
					<dim>32</dim>
					<dim>1</dim>
					<dim>1</dim>
				</port>
			</input>
			<output>
				<port id="2" precision="FP32" names="model/tfc3_1/sequential_4/tf_bottleneck_1/tf_conv_11/Identity:0,model/tfc3_1/sequential_4/tf_bottleneck_1/tf_conv_11/conv2d_11/BiasAdd:0,model/tfc3_1/sequential_4/tf_bottleneck_1/tf_conv_11/mul:0">
					<dim>1</dim>
					<dim>32</dim>
					<dim>64</dim>
					<dim>80</dim>
				</port>
			</output>
		</layer>
		<layer id="74" name="model/tfc3_1/sequential_4/tf_bottleneck_1/tf_conv_11/mul_1" type="Swish" version="opset4">
			<rt_info>
				<attribute name="fused_names" version="0" value="model/tfc3_1/sequential_4/tf_bottleneck_1/tf_conv_11/Sigmoid, model/tfc3_1/sequential_4/tf_bottleneck_1/tf_conv_11/mul_1"/>
			</rt_info>
			<input>
				<port id="0" precision="FP32">
					<dim>1</dim>
					<dim>32</dim>
					<dim>64</dim>
					<dim>80</dim>
				</port>
			</input>
			<output>
				<port id="1" precision="FP32" names="model/tfc3_1/sequential_4/tf_bottleneck_1/tf_conv_11/IdentityN:0,model/tfc3_1/sequential_4/tf_bottleneck_1/tf_conv_11/mul_1:0">
					<dim>1</dim>
					<dim>32</dim>
					<dim>64</dim>
					<dim>80</dim>
				</port>
			</output>
		</layer>
		<layer id="75" name="model/tfc3_1/sequential_4/tf_bottleneck_1/tf_conv_12/conv2d_12/Conv2D/ReadVariableOp_compressed" type="Const" version="opset1">
			<data element_type="f16" shape="32, 32, 3, 3" offset="65472" size="18432"/>
			<output>
				<port id="0" precision="FP16">
					<dim>32</dim>
					<dim>32</dim>
					<dim>3</dim>
					<dim>3</dim>
				</port>
			</output>
		</layer>
		<layer id="76" name="model/tfc3_1/sequential_4/tf_bottleneck_1/tf_conv_12/conv2d_12/Conv2D/ReadVariableOp" type="Convert" version="opset1">
			<data destination_type="f32"/>
			<rt_info>
				<attribute name="decompression" version="0"/>
				<attribute name="fused_names" version="0" value="model/tfc3_1/sequential_4/tf_bottleneck_1/tf_conv_12/conv2d_12/Conv2D/ReadVariableOp"/>
			</rt_info>
			<input>
				<port id="0" precision="FP16">
					<dim>32</dim>
					<dim>32</dim>
					<dim>3</dim>
					<dim>3</dim>
				</port>
			</input>
			<output>
				<port id="1" precision="FP32" names="model/tfc3_1/sequential_4/tf_bottleneck_1/tf_conv_12/conv2d_12/Conv2D/ReadVariableOp:0">
					<dim>32</dim>
					<dim>32</dim>
					<dim>3</dim>
					<dim>3</dim>
				</port>
			</output>
		</layer>
		<layer id="77" name="model/tfc3_1/sequential_4/tf_bottleneck_1/tf_conv_12/conv2d_12/Conv2D" type="Convolution" version="opset1">
			<data strides="1, 1" dilations="1, 1" pads_begin="0, 0" pads_end="0, 0" auto_pad="same_upper"/>
			<rt_info>
				<attribute name="fused_names" version="0" value="model/tfc3_1/sequential_4/tf_bottleneck_1/tf_conv_12/conv2d_12/Conv2D"/>
			</rt_info>
			<input>
				<port id="0" precision="FP32">
					<dim>1</dim>
					<dim>32</dim>
					<dim>64</dim>
					<dim>80</dim>
				</port>
				<port id="1" precision="FP32">
					<dim>32</dim>
					<dim>32</dim>
					<dim>3</dim>
					<dim>3</dim>
				</port>
			</input>
			<output>
				<port id="2" precision="FP32" names="model/tfc3_1/sequential_4/tf_bottleneck_1/tf_conv_12/conv2d_12/Conv2D:0">
					<dim>1</dim>
					<dim>32</dim>
					<dim>64</dim>
					<dim>80</dim>
				</port>
			</output>
		</layer>
		<layer id="78" name="model/tfc3_1/sequential_4/tf_bottleneck_1/tf_conv_12/conv2d_12/BiasAdd/ReadVariableOp_compressed" type="Const" version="opset1">
			<data element_type="f16" shape="1, 32, 1, 1" offset="83904" size="64"/>
			<output>
				<port id="0" precision="FP16">
					<dim>1</dim>
					<dim>32</dim>
					<dim>1</dim>
					<dim>1</dim>
				</port>
			</output>
		</layer>
		<layer id="79" name="model/tfc3_1/sequential_4/tf_bottleneck_1/tf_conv_12/conv2d_12/BiasAdd/ReadVariableOp" type="Convert" version="opset1">
			<data destination_type="f32"/>
			<rt_info>
				<attribute name="decompression" version="0"/>
				<attribute name="fused_names" version="0" value="model/tfc3_1/sequential_4/tf_bottleneck_1/tf_conv_12/conv2d_12/BiasAdd/ReadVariableOp"/>
			</rt_info>
			<input>
				<port id="0" precision="FP16">
					<dim>1</dim>
					<dim>32</dim>
					<dim>1</dim>
					<dim>1</dim>
				</port>
			</input>
			<output>
				<port id="1" precision="FP32" names="model/tfc3_1/sequential_4/tf_bottleneck_1/tf_conv_12/conv2d_12/BiasAdd/ReadVariableOp:0">
					<dim>1</dim>
					<dim>32</dim>
					<dim>1</dim>
					<dim>1</dim>
				</port>
			</output>
		</layer>
		<layer id="80" name="model/tfc3_1/sequential_4/tf_bottleneck_1/tf_conv_12/conv2d_12/BiasAdd/Add" type="Add" version="opset1">
			<data auto_broadcast="numpy"/>
			<rt_info>
				<attribute name="fused_names" version="0" value="model/tfc3_1/sequential_4/tf_bottleneck_1/tf_conv_12/conv2d_12/BiasAdd/Add, model/tfc3_1/sequential_4/tf_bottleneck_1/tf_conv_12/mul"/>
			</rt_info>
			<input>
				<port id="0" precision="FP32">
					<dim>1</dim>
					<dim>32</dim>
					<dim>64</dim>
					<dim>80</dim>
				</port>
				<port id="1" precision="FP32">
					<dim>1</dim>
					<dim>32</dim>
					<dim>1</dim>
					<dim>1</dim>
				</port>
			</input>
			<output>
				<port id="2" precision="FP32" names="model/tfc3_1/sequential_4/tf_bottleneck_1/tf_conv_12/Identity:0,model/tfc3_1/sequential_4/tf_bottleneck_1/tf_conv_12/conv2d_12/BiasAdd:0,model/tfc3_1/sequential_4/tf_bottleneck_1/tf_conv_12/mul:0">
					<dim>1</dim>
					<dim>32</dim>
					<dim>64</dim>
					<dim>80</dim>
				</port>
			</output>
		</layer>
		<layer id="81" name="model/tfc3_1/sequential_4/tf_bottleneck_1/tf_conv_12/mul_1" type="Swish" version="opset4">
			<rt_info>
				<attribute name="fused_names" version="0" value="model/tfc3_1/sequential_4/tf_bottleneck_1/tf_conv_12/Sigmoid, model/tfc3_1/sequential_4/tf_bottleneck_1/tf_conv_12/mul_1"/>
			</rt_info>
			<input>
				<port id="0" precision="FP32">
					<dim>1</dim>
					<dim>32</dim>
					<dim>64</dim>
					<dim>80</dim>
				</port>
			</input>
			<output>
				<port id="1" precision="FP32" names="model/tfc3_1/sequential_4/tf_bottleneck_1/tf_conv_12/IdentityN:0,model/tfc3_1/sequential_4/tf_bottleneck_1/tf_conv_12/mul_1:0">
					<dim>1</dim>
					<dim>32</dim>
					<dim>64</dim>
					<dim>80</dim>
				</port>
			</output>
		</layer>
		<layer id="82" name="model/tfc3_1/sequential_4/tf_bottleneck_1/add" type="Add" version="opset1">
			<data auto_broadcast="numpy"/>
			<rt_info>
				<attribute name="fused_names" version="0" value="model/tfc3_1/sequential_4/tf_bottleneck_1/add"/>
			</rt_info>
			<input>
				<port id="0" precision="FP32">
					<dim>1</dim>
					<dim>32</dim>
					<dim>64</dim>
					<dim>80</dim>
				</port>
				<port id="1" precision="FP32">
					<dim>1</dim>
					<dim>32</dim>
					<dim>64</dim>
					<dim>80</dim>
				</port>
			</input>
			<output>
				<port id="2" precision="FP32" names="model/tfc3_1/sequential_4/tf_bottleneck_1/add:0">
					<dim>1</dim>
					<dim>32</dim>
					<dim>64</dim>
					<dim>80</dim>
				</port>
			</output>
		</layer>
		<layer id="83" name="model/tfc3_1/sequential_4/tf_bottleneck_2/tf_conv_13/conv2d_13/Conv2D/ReadVariableOp_compressed" type="Const" version="opset1">
			<data element_type="f16" shape="32, 32, 1, 1" offset="83968" size="2048"/>
			<output>
				<port id="0" precision="FP16">
					<dim>32</dim>
					<dim>32</dim>
					<dim>1</dim>
					<dim>1</dim>
				</port>
			</output>
		</layer>
		<layer id="84" name="model/tfc3_1/sequential_4/tf_bottleneck_2/tf_conv_13/conv2d_13/Conv2D/ReadVariableOp" type="Convert" version="opset1">
			<data destination_type="f32"/>
			<rt_info>
				<attribute name="decompression" version="0"/>
				<attribute name="fused_names" version="0" value="model/tfc3_1/sequential_4/tf_bottleneck_2/tf_conv_13/conv2d_13/Conv2D/ReadVariableOp"/>
			</rt_info>
			<input>
				<port id="0" precision="FP16">
					<dim>32</dim>
					<dim>32</dim>
					<dim>1</dim>
					<dim>1</dim>
				</port>
			</input>
			<output>
				<port id="1" precision="FP32" names="model/tfc3_1/sequential_4/tf_bottleneck_2/tf_conv_13/conv2d_13/Conv2D/ReadVariableOp:0">
					<dim>32</dim>
					<dim>32</dim>
					<dim>1</dim>
					<dim>1</dim>
				</port>
			</output>
		</layer>
		<layer id="85" name="model/tfc3_1/sequential_4/tf_bottleneck_2/tf_conv_13/conv2d_13/Conv2D" type="Convolution" version="opset1">
			<data strides="1, 1" dilations="1, 1" pads_begin="0, 0" pads_end="0, 0" auto_pad="same_upper"/>
			<rt_info>
				<attribute name="fused_names" version="0" value="model/tfc3_1/sequential_4/tf_bottleneck_2/tf_conv_13/conv2d_13/Conv2D"/>
			</rt_info>
			<input>
				<port id="0" precision="FP32">
					<dim>1</dim>
					<dim>32</dim>
					<dim>64</dim>
					<dim>80</dim>
				</port>
				<port id="1" precision="FP32">
					<dim>32</dim>
					<dim>32</dim>
					<dim>1</dim>
					<dim>1</dim>
				</port>
			</input>
			<output>
				<port id="2" precision="FP32" names="model/tfc3_1/sequential_4/tf_bottleneck_2/tf_conv_13/conv2d_13/Conv2D:0">
					<dim>1</dim>
					<dim>32</dim>
					<dim>64</dim>
					<dim>80</dim>
				</port>
			</output>
		</layer>
		<layer id="86" name="model/tfc3_1/sequential_4/tf_bottleneck_2/tf_conv_13/conv2d_13/BiasAdd/ReadVariableOp_compressed" type="Const" version="opset1">
			<data element_type="f16" shape="1, 32, 1, 1" offset="86016" size="64"/>
			<output>
				<port id="0" precision="FP16">
					<dim>1</dim>
					<dim>32</dim>
					<dim>1</dim>
					<dim>1</dim>
				</port>
			</output>
		</layer>
		<layer id="87" name="model/tfc3_1/sequential_4/tf_bottleneck_2/tf_conv_13/conv2d_13/BiasAdd/ReadVariableOp" type="Convert" version="opset1">
			<data destination_type="f32"/>
			<rt_info>
				<attribute name="decompression" version="0"/>
				<attribute name="fused_names" version="0" value="model/tfc3_1/sequential_4/tf_bottleneck_2/tf_conv_13/conv2d_13/BiasAdd/ReadVariableOp"/>
			</rt_info>
			<input>
				<port id="0" precision="FP16">
					<dim>1</dim>
					<dim>32</dim>
					<dim>1</dim>
					<dim>1</dim>
				</port>
			</input>
			<output>
				<port id="1" precision="FP32" names="model/tfc3_1/sequential_4/tf_bottleneck_2/tf_conv_13/conv2d_13/BiasAdd/ReadVariableOp:0">
					<dim>1</dim>
					<dim>32</dim>
					<dim>1</dim>
					<dim>1</dim>
				</port>
			</output>
		</layer>
		<layer id="88" name="model/tfc3_1/sequential_4/tf_bottleneck_2/tf_conv_13/conv2d_13/BiasAdd/Add" type="Add" version="opset1">
			<data auto_broadcast="numpy"/>
			<rt_info>
				<attribute name="fused_names" version="0" value="model/tfc3_1/sequential_4/tf_bottleneck_2/tf_conv_13/conv2d_13/BiasAdd/Add, model/tfc3_1/sequential_4/tf_bottleneck_2/tf_conv_13/mul"/>
			</rt_info>
			<input>
				<port id="0" precision="FP32">
					<dim>1</dim>
					<dim>32</dim>
					<dim>64</dim>
					<dim>80</dim>
				</port>
				<port id="1" precision="FP32">
					<dim>1</dim>
					<dim>32</dim>
					<dim>1</dim>
					<dim>1</dim>
				</port>
			</input>
			<output>
				<port id="2" precision="FP32" names="model/tfc3_1/sequential_4/tf_bottleneck_2/tf_conv_13/Identity:0,model/tfc3_1/sequential_4/tf_bottleneck_2/tf_conv_13/conv2d_13/BiasAdd:0,model/tfc3_1/sequential_4/tf_bottleneck_2/tf_conv_13/mul:0">
					<dim>1</dim>
					<dim>32</dim>
					<dim>64</dim>
					<dim>80</dim>
				</port>
			</output>
		</layer>
		<layer id="89" name="model/tfc3_1/sequential_4/tf_bottleneck_2/tf_conv_13/mul_1" type="Swish" version="opset4">
			<rt_info>
				<attribute name="fused_names" version="0" value="model/tfc3_1/sequential_4/tf_bottleneck_2/tf_conv_13/Sigmoid, model/tfc3_1/sequential_4/tf_bottleneck_2/tf_conv_13/mul_1"/>
			</rt_info>
			<input>
				<port id="0" precision="FP32">
					<dim>1</dim>
					<dim>32</dim>
					<dim>64</dim>
					<dim>80</dim>
				</port>
			</input>
			<output>
				<port id="1" precision="FP32" names="model/tfc3_1/sequential_4/tf_bottleneck_2/tf_conv_13/IdentityN:0,model/tfc3_1/sequential_4/tf_bottleneck_2/tf_conv_13/mul_1:0">
					<dim>1</dim>
					<dim>32</dim>
					<dim>64</dim>
					<dim>80</dim>
				</port>
			</output>
		</layer>
		<layer id="90" name="model/tfc3_1/sequential_4/tf_bottleneck_2/tf_conv_14/conv2d_14/Conv2D/ReadVariableOp_compressed" type="Const" version="opset1">
			<data element_type="f16" shape="32, 32, 3, 3" offset="86080" size="18432"/>
			<output>
				<port id="0" precision="FP16">
					<dim>32</dim>
					<dim>32</dim>
					<dim>3</dim>
					<dim>3</dim>
				</port>
			</output>
		</layer>
		<layer id="91" name="model/tfc3_1/sequential_4/tf_bottleneck_2/tf_conv_14/conv2d_14/Conv2D/ReadVariableOp" type="Convert" version="opset1">
			<data destination_type="f32"/>
			<rt_info>
				<attribute name="decompression" version="0"/>
				<attribute name="fused_names" version="0" value="model/tfc3_1/sequential_4/tf_bottleneck_2/tf_conv_14/conv2d_14/Conv2D/ReadVariableOp"/>
			</rt_info>
			<input>
				<port id="0" precision="FP16">
					<dim>32</dim>
					<dim>32</dim>
					<dim>3</dim>
					<dim>3</dim>
				</port>
			</input>
			<output>
				<port id="1" precision="FP32" names="model/tfc3_1/sequential_4/tf_bottleneck_2/tf_conv_14/conv2d_14/Conv2D/ReadVariableOp:0">
					<dim>32</dim>
					<dim>32</dim>
					<dim>3</dim>
					<dim>3</dim>
				</port>
			</output>
		</layer>
		<layer id="92" name="model/tfc3_1/sequential_4/tf_bottleneck_2/tf_conv_14/conv2d_14/Conv2D" type="Convolution" version="opset1">
			<data strides="1, 1" dilations="1, 1" pads_begin="0, 0" pads_end="0, 0" auto_pad="same_upper"/>
			<rt_info>
				<attribute name="fused_names" version="0" value="model/tfc3_1/sequential_4/tf_bottleneck_2/tf_conv_14/conv2d_14/Conv2D"/>
			</rt_info>
			<input>
				<port id="0" precision="FP32">
					<dim>1</dim>
					<dim>32</dim>
					<dim>64</dim>
					<dim>80</dim>
				</port>
				<port id="1" precision="FP32">
					<dim>32</dim>
					<dim>32</dim>
					<dim>3</dim>
					<dim>3</dim>
				</port>
			</input>
			<output>
				<port id="2" precision="FP32" names="model/tfc3_1/sequential_4/tf_bottleneck_2/tf_conv_14/conv2d_14/Conv2D:0">
					<dim>1</dim>
					<dim>32</dim>
					<dim>64</dim>
					<dim>80</dim>
				</port>
			</output>
		</layer>
		<layer id="93" name="model/tfc3_1/sequential_4/tf_bottleneck_2/tf_conv_14/conv2d_14/BiasAdd/ReadVariableOp_compressed" type="Const" version="opset1">
			<data element_type="f16" shape="1, 32, 1, 1" offset="104512" size="64"/>
			<output>
				<port id="0" precision="FP16">
					<dim>1</dim>
					<dim>32</dim>
					<dim>1</dim>
					<dim>1</dim>
				</port>
			</output>
		</layer>
		<layer id="94" name="model/tfc3_1/sequential_4/tf_bottleneck_2/tf_conv_14/conv2d_14/BiasAdd/ReadVariableOp" type="Convert" version="opset1">
			<data destination_type="f32"/>
			<rt_info>
				<attribute name="decompression" version="0"/>
				<attribute name="fused_names" version="0" value="model/tfc3_1/sequential_4/tf_bottleneck_2/tf_conv_14/conv2d_14/BiasAdd/ReadVariableOp"/>
			</rt_info>
			<input>
				<port id="0" precision="FP16">
					<dim>1</dim>
					<dim>32</dim>
					<dim>1</dim>
					<dim>1</dim>
				</port>
			</input>
			<output>
				<port id="1" precision="FP32" names="model/tfc3_1/sequential_4/tf_bottleneck_2/tf_conv_14/conv2d_14/BiasAdd/ReadVariableOp:0">
					<dim>1</dim>
					<dim>32</dim>
					<dim>1</dim>
					<dim>1</dim>
				</port>
			</output>
		</layer>
		<layer id="95" name="model/tfc3_1/sequential_4/tf_bottleneck_2/tf_conv_14/conv2d_14/BiasAdd/Add" type="Add" version="opset1">
			<data auto_broadcast="numpy"/>
			<rt_info>
				<attribute name="fused_names" version="0" value="model/tfc3_1/sequential_4/tf_bottleneck_2/tf_conv_14/conv2d_14/BiasAdd/Add, model/tfc3_1/sequential_4/tf_bottleneck_2/tf_conv_14/mul"/>
			</rt_info>
			<input>
				<port id="0" precision="FP32">
					<dim>1</dim>
					<dim>32</dim>
					<dim>64</dim>
					<dim>80</dim>
				</port>
				<port id="1" precision="FP32">
					<dim>1</dim>
					<dim>32</dim>
					<dim>1</dim>
					<dim>1</dim>
				</port>
			</input>
			<output>
				<port id="2" precision="FP32" names="model/tfc3_1/sequential_4/tf_bottleneck_2/tf_conv_14/Identity:0,model/tfc3_1/sequential_4/tf_bottleneck_2/tf_conv_14/conv2d_14/BiasAdd:0,model/tfc3_1/sequential_4/tf_bottleneck_2/tf_conv_14/mul:0">
					<dim>1</dim>
					<dim>32</dim>
					<dim>64</dim>
					<dim>80</dim>
				</port>
			</output>
		</layer>
		<layer id="96" name="model/tfc3_1/sequential_4/tf_bottleneck_2/tf_conv_14/mul_1" type="Swish" version="opset4">
			<rt_info>
				<attribute name="fused_names" version="0" value="model/tfc3_1/sequential_4/tf_bottleneck_2/tf_conv_14/Sigmoid, model/tfc3_1/sequential_4/tf_bottleneck_2/tf_conv_14/mul_1"/>
			</rt_info>
			<input>
				<port id="0" precision="FP32">
					<dim>1</dim>
					<dim>32</dim>
					<dim>64</dim>
					<dim>80</dim>
				</port>
			</input>
			<output>
				<port id="1" precision="FP32" names="model/tfc3_1/sequential_4/tf_bottleneck_2/tf_conv_14/IdentityN:0,model/tfc3_1/sequential_4/tf_bottleneck_2/tf_conv_14/mul_1:0">
					<dim>1</dim>
					<dim>32</dim>
					<dim>64</dim>
					<dim>80</dim>
				</port>
			</output>
		</layer>
		<layer id="97" name="model/tfc3_1/sequential_4/tf_bottleneck_2/add" type="Add" version="opset1">
			<data auto_broadcast="numpy"/>
			<rt_info>
				<attribute name="fused_names" version="0" value="model/tfc3_1/sequential_4/tf_bottleneck_2/add"/>
			</rt_info>
			<input>
				<port id="0" precision="FP32">
					<dim>1</dim>
					<dim>32</dim>
					<dim>64</dim>
					<dim>80</dim>
				</port>
				<port id="1" precision="FP32">
					<dim>1</dim>
					<dim>32</dim>
					<dim>64</dim>
					<dim>80</dim>
				</port>
			</input>
			<output>
				<port id="2" precision="FP32" names="model/tfc3_1/sequential_4/tf_bottleneck_2/add:0">
					<dim>1</dim>
					<dim>32</dim>
					<dim>64</dim>
					<dim>80</dim>
				</port>
			</output>
		</layer>
		<layer id="98" name="model/tfc3_1/tf_conv_9/conv2d_9/Conv2D/ReadVariableOp_compressed" type="Const" version="opset1">
			<data element_type="f16" shape="32, 64, 1, 1" offset="104576" size="4096"/>
			<output>
				<port id="0" precision="FP16">
					<dim>32</dim>
					<dim>64</dim>
					<dim>1</dim>
					<dim>1</dim>
				</port>
			</output>
		</layer>
		<layer id="99" name="model/tfc3_1/tf_conv_9/conv2d_9/Conv2D/ReadVariableOp" type="Convert" version="opset1">
			<data destination_type="f32"/>
			<rt_info>
				<attribute name="decompression" version="0"/>
				<attribute name="fused_names" version="0" value="model/tfc3_1/tf_conv_9/conv2d_9/Conv2D/ReadVariableOp"/>
			</rt_info>
			<input>
				<port id="0" precision="FP16">
					<dim>32</dim>
					<dim>64</dim>
					<dim>1</dim>
					<dim>1</dim>
				</port>
			</input>
			<output>
				<port id="1" precision="FP32" names="model/tfc3_1/tf_conv_9/conv2d_9/Conv2D/ReadVariableOp:0">
					<dim>32</dim>
					<dim>64</dim>
					<dim>1</dim>
					<dim>1</dim>
				</port>
			</output>
		</layer>
		<layer id="100" name="model/tfc3_1/tf_conv_9/conv2d_9/Conv2D" type="Convolution" version="opset1">
			<data strides="1, 1" dilations="1, 1" pads_begin="0, 0" pads_end="0, 0" auto_pad="same_upper"/>
			<rt_info>
				<attribute name="fused_names" version="0" value="model/tfc3_1/tf_conv_9/conv2d_9/Conv2D"/>
			</rt_info>
			<input>
				<port id="0" precision="FP32">
					<dim>1</dim>
					<dim>64</dim>
					<dim>64</dim>
					<dim>80</dim>
				</port>
				<port id="1" precision="FP32">
					<dim>32</dim>
					<dim>64</dim>
					<dim>1</dim>
					<dim>1</dim>
				</port>
			</input>
			<output>
				<port id="2" precision="FP32" names="model/tfc3_1/tf_conv_9/conv2d_9/Conv2D:0">
					<dim>1</dim>
					<dim>32</dim>
					<dim>64</dim>
					<dim>80</dim>
				</port>
			</output>
		</layer>
		<layer id="101" name="model/tfc3_1/tf_conv_9/conv2d_9/BiasAdd/ReadVariableOp_compressed" type="Const" version="opset1">
			<data element_type="f16" shape="1, 32, 1, 1" offset="108672" size="64"/>
			<output>
				<port id="0" precision="FP16">
					<dim>1</dim>
					<dim>32</dim>
					<dim>1</dim>
					<dim>1</dim>
				</port>
			</output>
		</layer>
		<layer id="102" name="model/tfc3_1/tf_conv_9/conv2d_9/BiasAdd/ReadVariableOp" type="Convert" version="opset1">
			<data destination_type="f32"/>
			<rt_info>
				<attribute name="decompression" version="0"/>
				<attribute name="fused_names" version="0" value="model/tfc3_1/tf_conv_9/conv2d_9/BiasAdd/ReadVariableOp"/>
			</rt_info>
			<input>
				<port id="0" precision="FP16">
					<dim>1</dim>
					<dim>32</dim>
					<dim>1</dim>
					<dim>1</dim>
				</port>
			</input>
			<output>
				<port id="1" precision="FP32" names="model/tfc3_1/tf_conv_9/conv2d_9/BiasAdd/ReadVariableOp:0">
					<dim>1</dim>
					<dim>32</dim>
					<dim>1</dim>
					<dim>1</dim>
				</port>
			</output>
		</layer>
		<layer id="103" name="model/tfc3_1/tf_conv_9/conv2d_9/BiasAdd/Add" type="Add" version="opset1">
			<data auto_broadcast="numpy"/>
			<rt_info>
				<attribute name="fused_names" version="0" value="model/tfc3_1/tf_conv_9/conv2d_9/BiasAdd/Add, model/tfc3_1/tf_conv_9/mul"/>
			</rt_info>
			<input>
				<port id="0" precision="FP32">
					<dim>1</dim>
					<dim>32</dim>
					<dim>64</dim>
					<dim>80</dim>
				</port>
				<port id="1" precision="FP32">
					<dim>1</dim>
					<dim>32</dim>
					<dim>1</dim>
					<dim>1</dim>
				</port>
			</input>
			<output>
				<port id="2" precision="FP32" names="model/tfc3_1/tf_conv_9/Identity:0,model/tfc3_1/tf_conv_9/conv2d_9/BiasAdd:0,model/tfc3_1/tf_conv_9/mul:0">
					<dim>1</dim>
					<dim>32</dim>
					<dim>64</dim>
					<dim>80</dim>
				</port>
			</output>
		</layer>
		<layer id="104" name="model/tfc3_1/tf_conv_9/mul_1" type="Swish" version="opset4">
			<rt_info>
				<attribute name="fused_names" version="0" value="model/tfc3_1/tf_conv_9/Sigmoid, model/tfc3_1/tf_conv_9/mul_1"/>
			</rt_info>
			<input>
				<port id="0" precision="FP32">
					<dim>1</dim>
					<dim>32</dim>
					<dim>64</dim>
					<dim>80</dim>
				</port>
			</input>
			<output>
				<port id="1" precision="FP32" names="model/tfc3_1/tf_conv_9/IdentityN:0,model/tfc3_1/tf_conv_9/mul_1:0">
					<dim>1</dim>
					<dim>32</dim>
					<dim>64</dim>
					<dim>80</dim>
				</port>
			</output>
		</layer>
		<layer id="105" name="model/tfc3_1/concat" type="Concat" version="opset1">
			<data axis="1"/>
			<rt_info>
				<attribute name="fused_names" version="0" value="model/tfc3_1/concat"/>
			</rt_info>
			<input>
				<port id="0" precision="FP32">
					<dim>1</dim>
					<dim>32</dim>
					<dim>64</dim>
					<dim>80</dim>
				</port>
				<port id="1" precision="FP32">
					<dim>1</dim>
					<dim>32</dim>
					<dim>64</dim>
					<dim>80</dim>
				</port>
			</input>
			<output>
				<port id="2" precision="FP32" names="model/tfc3_1/concat:0">
					<dim>1</dim>
					<dim>64</dim>
					<dim>64</dim>
					<dim>80</dim>
				</port>
			</output>
		</layer>
		<layer id="106" name="model/tfc3_1/tf_conv_10/conv2d_10/Conv2D/ReadVariableOp_compressed" type="Const" version="opset1">
			<data element_type="f16" shape="64, 64, 1, 1" offset="108736" size="8192"/>
			<output>
				<port id="0" precision="FP16">
					<dim>64</dim>
					<dim>64</dim>
					<dim>1</dim>
					<dim>1</dim>
				</port>
			</output>
		</layer>
		<layer id="107" name="model/tfc3_1/tf_conv_10/conv2d_10/Conv2D/ReadVariableOp" type="Convert" version="opset1">
			<data destination_type="f32"/>
			<rt_info>
				<attribute name="decompression" version="0"/>
				<attribute name="fused_names" version="0" value="model/tfc3_1/tf_conv_10/conv2d_10/Conv2D/ReadVariableOp"/>
			</rt_info>
			<input>
				<port id="0" precision="FP16">
					<dim>64</dim>
					<dim>64</dim>
					<dim>1</dim>
					<dim>1</dim>
				</port>
			</input>
			<output>
				<port id="1" precision="FP32" names="model/tfc3_1/tf_conv_10/conv2d_10/Conv2D/ReadVariableOp:0">
					<dim>64</dim>
					<dim>64</dim>
					<dim>1</dim>
					<dim>1</dim>
				</port>
			</output>
		</layer>
		<layer id="108" name="model/tfc3_1/tf_conv_10/conv2d_10/Conv2D" type="Convolution" version="opset1">
			<data strides="1, 1" dilations="1, 1" pads_begin="0, 0" pads_end="0, 0" auto_pad="same_upper"/>
			<rt_info>
				<attribute name="fused_names" version="0" value="model/tfc3_1/tf_conv_10/conv2d_10/Conv2D"/>
			</rt_info>
			<input>
				<port id="0" precision="FP32">
					<dim>1</dim>
					<dim>64</dim>
					<dim>64</dim>
					<dim>80</dim>
				</port>
				<port id="1" precision="FP32">
					<dim>64</dim>
					<dim>64</dim>
					<dim>1</dim>
					<dim>1</dim>
				</port>
			</input>
			<output>
				<port id="2" precision="FP32" names="model/tfc3_1/tf_conv_10/conv2d_10/Conv2D:0">
					<dim>1</dim>
					<dim>64</dim>
					<dim>64</dim>
					<dim>80</dim>
				</port>
			</output>
		</layer>
		<layer id="109" name="model/tfc3_1/tf_conv_10/conv2d_10/BiasAdd/ReadVariableOp_compressed" type="Const" version="opset1">
			<data element_type="f16" shape="1, 64, 1, 1" offset="116928" size="128"/>
			<output>
				<port id="0" precision="FP16">
					<dim>1</dim>
					<dim>64</dim>
					<dim>1</dim>
					<dim>1</dim>
				</port>
			</output>
		</layer>
		<layer id="110" name="model/tfc3_1/tf_conv_10/conv2d_10/BiasAdd/ReadVariableOp" type="Convert" version="opset1">
			<data destination_type="f32"/>
			<rt_info>
				<attribute name="decompression" version="0"/>
				<attribute name="fused_names" version="0" value="model/tfc3_1/tf_conv_10/conv2d_10/BiasAdd/ReadVariableOp"/>
			</rt_info>
			<input>
				<port id="0" precision="FP16">
					<dim>1</dim>
					<dim>64</dim>
					<dim>1</dim>
					<dim>1</dim>
				</port>
			</input>
			<output>
				<port id="1" precision="FP32" names="model/tfc3_1/tf_conv_10/conv2d_10/BiasAdd/ReadVariableOp:0">
					<dim>1</dim>
					<dim>64</dim>
					<dim>1</dim>
					<dim>1</dim>
				</port>
			</output>
		</layer>
		<layer id="111" name="model/tfc3_1/tf_conv_10/conv2d_10/BiasAdd/Add" type="Add" version="opset1">
			<data auto_broadcast="numpy"/>
			<rt_info>
				<attribute name="fused_names" version="0" value="model/tfc3_1/tf_conv_10/conv2d_10/BiasAdd/Add, model/tfc3_1/tf_conv_10/mul"/>
			</rt_info>
			<input>
				<port id="0" precision="FP32">
					<dim>1</dim>
					<dim>64</dim>
					<dim>64</dim>
					<dim>80</dim>
				</port>
				<port id="1" precision="FP32">
					<dim>1</dim>
					<dim>64</dim>
					<dim>1</dim>
					<dim>1</dim>
				</port>
			</input>
			<output>
				<port id="2" precision="FP32" names="model/tfc3_1/tf_conv_10/Identity:0,model/tfc3_1/tf_conv_10/conv2d_10/BiasAdd:0,model/tfc3_1/tf_conv_10/mul:0">
					<dim>1</dim>
					<dim>64</dim>
					<dim>64</dim>
					<dim>80</dim>
				</port>
			</output>
		</layer>
		<layer id="112" name="model/tfc3_1/tf_conv_10/mul_1" type="Swish" version="opset4">
			<rt_info>
				<attribute name="fused_names" version="0" value="model/tfc3_1/tf_conv_10/Sigmoid, model/tfc3_1/tf_conv_10/mul_1"/>
			</rt_info>
			<input>
				<port id="0" precision="FP32">
					<dim>1</dim>
					<dim>64</dim>
					<dim>64</dim>
					<dim>80</dim>
				</port>
			</input>
			<output>
				<port id="1" precision="FP32" names="model/tfc3_1/tf_conv_10/IdentityN:0,model/tfc3_1/tf_conv_10/mul_1:0">
					<dim>1</dim>
					<dim>64</dim>
					<dim>64</dim>
					<dim>80</dim>
				</port>
			</output>
		</layer>
		<layer id="113" name="model/tf_conv_15/sequential_5/conv2d_15/Conv2D/ReadVariableOp_compressed" type="Const" version="opset1">
			<data element_type="f16" shape="128, 64, 3, 3" offset="117056" size="147456"/>
			<output>
				<port id="0" precision="FP16">
					<dim>128</dim>
					<dim>64</dim>
					<dim>3</dim>
					<dim>3</dim>
				</port>
			</output>
		</layer>
		<layer id="114" name="model/tf_conv_15/sequential_5/conv2d_15/Conv2D/ReadVariableOp" type="Convert" version="opset1">
			<data destination_type="f32"/>
			<rt_info>
				<attribute name="decompression" version="0"/>
				<attribute name="fused_names" version="0" value="model/tf_conv_15/sequential_5/conv2d_15/Conv2D/ReadVariableOp"/>
			</rt_info>
			<input>
				<port id="0" precision="FP16">
					<dim>128</dim>
					<dim>64</dim>
					<dim>3</dim>
					<dim>3</dim>
				</port>
			</input>
			<output>
				<port id="1" precision="FP32" names="model/tf_conv_15/sequential_5/conv2d_15/Conv2D/ReadVariableOp:0">
					<dim>128</dim>
					<dim>64</dim>
					<dim>3</dim>
					<dim>3</dim>
				</port>
			</output>
		</layer>
		<layer id="115" name="model/tf_conv_15/sequential_5/conv2d_15/Conv2D" type="Convolution" version="opset1">
			<data strides="2, 2" dilations="1, 1" pads_begin="1, 1" pads_end="1, 1" auto_pad="explicit"/>
			<rt_info>
				<attribute name="fused_names" version="0" value="model/tf_conv_15/sequential_5/conv2d_15/Conv2D, model/tf_conv_15/sequential_5/tf_pad_3/Pad"/>
			</rt_info>
			<input>
				<port id="0" precision="FP32">
					<dim>1</dim>
					<dim>64</dim>
					<dim>64</dim>
					<dim>80</dim>
				</port>
				<port id="1" precision="FP32">
					<dim>128</dim>
					<dim>64</dim>
					<dim>3</dim>
					<dim>3</dim>
				</port>
			</input>
			<output>
				<port id="2" precision="FP32" names="model/tf_conv_15/sequential_5/conv2d_15/Conv2D:0">
					<dim>1</dim>
					<dim>128</dim>
					<dim>32</dim>
					<dim>40</dim>
				</port>
			</output>
		</layer>
		<layer id="116" name="model/tf_conv_15/sequential_5/conv2d_15/BiasAdd/ReadVariableOp_compressed" type="Const" version="opset1">
			<data element_type="f16" shape="1, 128, 1, 1" offset="264512" size="256"/>
			<output>
				<port id="0" precision="FP16">
					<dim>1</dim>
					<dim>128</dim>
					<dim>1</dim>
					<dim>1</dim>
				</port>
			</output>
		</layer>
		<layer id="117" name="model/tf_conv_15/sequential_5/conv2d_15/BiasAdd/ReadVariableOp" type="Convert" version="opset1">
			<data destination_type="f32"/>
			<rt_info>
				<attribute name="decompression" version="0"/>
				<attribute name="fused_names" version="0" value="model/tf_conv_15/sequential_5/conv2d_15/BiasAdd/ReadVariableOp"/>
			</rt_info>
			<input>
				<port id="0" precision="FP16">
					<dim>1</dim>
					<dim>128</dim>
					<dim>1</dim>
					<dim>1</dim>
				</port>
			</input>
			<output>
				<port id="1" precision="FP32" names="model/tf_conv_15/sequential_5/conv2d_15/BiasAdd/ReadVariableOp:0">
					<dim>1</dim>
					<dim>128</dim>
					<dim>1</dim>
					<dim>1</dim>
				</port>
			</output>
		</layer>
		<layer id="118" name="model/tf_conv_15/sequential_5/conv2d_15/BiasAdd/Add" type="Add" version="opset1">
			<data auto_broadcast="numpy"/>
			<rt_info>
				<attribute name="fused_names" version="0" value="model/tf_conv_15/mul, model/tf_conv_15/sequential_5/conv2d_15/BiasAdd/Add"/>
			</rt_info>
			<input>
				<port id="0" precision="FP32">
					<dim>1</dim>
					<dim>128</dim>
					<dim>32</dim>
					<dim>40</dim>
				</port>
				<port id="1" precision="FP32">
					<dim>1</dim>
					<dim>128</dim>
					<dim>1</dim>
					<dim>1</dim>
				</port>
			</input>
			<output>
				<port id="2" precision="FP32" names="model/tf_conv_15/Identity:0,model/tf_conv_15/mul:0,model/tf_conv_15/sequential_5/conv2d_15/BiasAdd:0">
					<dim>1</dim>
					<dim>128</dim>
					<dim>32</dim>
					<dim>40</dim>
				</port>
			</output>
		</layer>
		<layer id="119" name="model/tf_conv_15/mul_1" type="Swish" version="opset4">
			<rt_info>
				<attribute name="fused_names" version="0" value="model/tf_conv_15/Sigmoid, model/tf_conv_15/mul_1"/>
			</rt_info>
			<input>
				<port id="0" precision="FP32">
					<dim>1</dim>
					<dim>128</dim>
					<dim>32</dim>
					<dim>40</dim>
				</port>
			</input>
			<output>
				<port id="1" precision="FP32" names="model/tf_conv_15/IdentityN:0,model/tf_conv_15/mul_1:0">
					<dim>1</dim>
					<dim>128</dim>
					<dim>32</dim>
					<dim>40</dim>
				</port>
			</output>
		</layer>
		<layer id="120" name="model/tfc3_2/tf_conv_16/conv2d_16/Conv2D/ReadVariableOp_compressed" type="Const" version="opset1">
			<data element_type="f16" shape="64, 128, 1, 1" offset="264768" size="16384"/>
			<output>
				<port id="0" precision="FP16">
					<dim>64</dim>
					<dim>128</dim>
					<dim>1</dim>
					<dim>1</dim>
				</port>
			</output>
		</layer>
		<layer id="121" name="model/tfc3_2/tf_conv_16/conv2d_16/Conv2D/ReadVariableOp" type="Convert" version="opset1">
			<data destination_type="f32"/>
			<rt_info>
				<attribute name="decompression" version="0"/>
				<attribute name="fused_names" version="0" value="model/tfc3_2/tf_conv_16/conv2d_16/Conv2D/ReadVariableOp"/>
			</rt_info>
			<input>
				<port id="0" precision="FP16">
					<dim>64</dim>
					<dim>128</dim>
					<dim>1</dim>
					<dim>1</dim>
				</port>
			</input>
			<output>
				<port id="1" precision="FP32" names="model/tfc3_2/tf_conv_16/conv2d_16/Conv2D/ReadVariableOp:0">
					<dim>64</dim>
					<dim>128</dim>
					<dim>1</dim>
					<dim>1</dim>
				</port>
			</output>
		</layer>
		<layer id="122" name="model/tfc3_2/tf_conv_16/conv2d_16/Conv2D" type="Convolution" version="opset1">
			<data strides="1, 1" dilations="1, 1" pads_begin="0, 0" pads_end="0, 0" auto_pad="same_upper"/>
			<rt_info>
				<attribute name="fused_names" version="0" value="model/tfc3_2/tf_conv_16/conv2d_16/Conv2D"/>
			</rt_info>
			<input>
				<port id="0" precision="FP32">
					<dim>1</dim>
					<dim>128</dim>
					<dim>32</dim>
					<dim>40</dim>
				</port>
				<port id="1" precision="FP32">
					<dim>64</dim>
					<dim>128</dim>
					<dim>1</dim>
					<dim>1</dim>
				</port>
			</input>
			<output>
				<port id="2" precision="FP32" names="model/tfc3_2/tf_conv_16/conv2d_16/Conv2D:0">
					<dim>1</dim>
					<dim>64</dim>
					<dim>32</dim>
					<dim>40</dim>
				</port>
			</output>
		</layer>
		<layer id="123" name="model/tfc3_2/tf_conv_16/conv2d_16/BiasAdd/ReadVariableOp_compressed" type="Const" version="opset1">
			<data element_type="f16" shape="1, 64, 1, 1" offset="281152" size="128"/>
			<output>
				<port id="0" precision="FP16">
					<dim>1</dim>
					<dim>64</dim>
					<dim>1</dim>
					<dim>1</dim>
				</port>
			</output>
		</layer>
		<layer id="124" name="model/tfc3_2/tf_conv_16/conv2d_16/BiasAdd/ReadVariableOp" type="Convert" version="opset1">
			<data destination_type="f32"/>
			<rt_info>
				<attribute name="decompression" version="0"/>
				<attribute name="fused_names" version="0" value="model/tfc3_2/tf_conv_16/conv2d_16/BiasAdd/ReadVariableOp"/>
			</rt_info>
			<input>
				<port id="0" precision="FP16">
					<dim>1</dim>
					<dim>64</dim>
					<dim>1</dim>
					<dim>1</dim>
				</port>
			</input>
			<output>
				<port id="1" precision="FP32" names="model/tfc3_2/tf_conv_16/conv2d_16/BiasAdd/ReadVariableOp:0">
					<dim>1</dim>
					<dim>64</dim>
					<dim>1</dim>
					<dim>1</dim>
				</port>
			</output>
		</layer>
		<layer id="125" name="model/tfc3_2/tf_conv_16/conv2d_16/BiasAdd/Add" type="Add" version="opset1">
			<data auto_broadcast="numpy"/>
			<rt_info>
				<attribute name="fused_names" version="0" value="model/tfc3_2/tf_conv_16/conv2d_16/BiasAdd/Add, model/tfc3_2/tf_conv_16/mul"/>
			</rt_info>
			<input>
				<port id="0" precision="FP32">
					<dim>1</dim>
					<dim>64</dim>
					<dim>32</dim>
					<dim>40</dim>
				</port>
				<port id="1" precision="FP32">
					<dim>1</dim>
					<dim>64</dim>
					<dim>1</dim>
					<dim>1</dim>
				</port>
			</input>
			<output>
				<port id="2" precision="FP32" names="model/tfc3_2/tf_conv_16/Identity:0,model/tfc3_2/tf_conv_16/conv2d_16/BiasAdd:0,model/tfc3_2/tf_conv_16/mul:0">
					<dim>1</dim>
					<dim>64</dim>
					<dim>32</dim>
					<dim>40</dim>
				</port>
			</output>
		</layer>
		<layer id="126" name="model/tfc3_2/tf_conv_16/mul_1" type="Swish" version="opset4">
			<rt_info>
				<attribute name="fused_names" version="0" value="model/tfc3_2/tf_conv_16/Sigmoid, model/tfc3_2/tf_conv_16/mul_1"/>
			</rt_info>
			<input>
				<port id="0" precision="FP32">
					<dim>1</dim>
					<dim>64</dim>
					<dim>32</dim>
					<dim>40</dim>
				</port>
			</input>
			<output>
				<port id="1" precision="FP32" names="model/tfc3_2/tf_conv_16/IdentityN:0,model/tfc3_2/tf_conv_16/mul_1:0">
					<dim>1</dim>
					<dim>64</dim>
					<dim>32</dim>
					<dim>40</dim>
				</port>
			</output>
		</layer>
		<layer id="127" name="model/tfc3_2/sequential_6/tf_bottleneck_3/tf_conv_19/conv2d_19/Conv2D/ReadVariableOp_compressed" type="Const" version="opset1">
			<data element_type="f16" shape="64, 64, 1, 1" offset="281280" size="8192"/>
			<output>
				<port id="0" precision="FP16">
					<dim>64</dim>
					<dim>64</dim>
					<dim>1</dim>
					<dim>1</dim>
				</port>
			</output>
		</layer>
		<layer id="128" name="model/tfc3_2/sequential_6/tf_bottleneck_3/tf_conv_19/conv2d_19/Conv2D/ReadVariableOp" type="Convert" version="opset1">
			<data destination_type="f32"/>
			<rt_info>
				<attribute name="decompression" version="0"/>
				<attribute name="fused_names" version="0" value="model/tfc3_2/sequential_6/tf_bottleneck_3/tf_conv_19/conv2d_19/Conv2D/ReadVariableOp"/>
			</rt_info>
			<input>
				<port id="0" precision="FP16">
					<dim>64</dim>
					<dim>64</dim>
					<dim>1</dim>
					<dim>1</dim>
				</port>
			</input>
			<output>
				<port id="1" precision="FP32" names="model/tfc3_2/sequential_6/tf_bottleneck_3/tf_conv_19/conv2d_19/Conv2D/ReadVariableOp:0">
					<dim>64</dim>
					<dim>64</dim>
					<dim>1</dim>
					<dim>1</dim>
				</port>
			</output>
		</layer>
		<layer id="129" name="model/tfc3_2/sequential_6/tf_bottleneck_3/tf_conv_19/conv2d_19/Conv2D" type="Convolution" version="opset1">
			<data strides="1, 1" dilations="1, 1" pads_begin="0, 0" pads_end="0, 0" auto_pad="same_upper"/>
			<rt_info>
				<attribute name="fused_names" version="0" value="model/tfc3_2/sequential_6/tf_bottleneck_3/tf_conv_19/conv2d_19/Conv2D"/>
			</rt_info>
			<input>
				<port id="0" precision="FP32">
					<dim>1</dim>
					<dim>64</dim>
					<dim>32</dim>
					<dim>40</dim>
				</port>
				<port id="1" precision="FP32">
					<dim>64</dim>
					<dim>64</dim>
					<dim>1</dim>
					<dim>1</dim>
				</port>
			</input>
			<output>
				<port id="2" precision="FP32" names="model/tfc3_2/sequential_6/tf_bottleneck_3/tf_conv_19/conv2d_19/Conv2D:0">
					<dim>1</dim>
					<dim>64</dim>
					<dim>32</dim>
					<dim>40</dim>
				</port>
			</output>
		</layer>
		<layer id="130" name="model/tfc3_2/sequential_6/tf_bottleneck_3/tf_conv_19/conv2d_19/BiasAdd/ReadVariableOp_compressed" type="Const" version="opset1">
			<data element_type="f16" shape="1, 64, 1, 1" offset="289472" size="128"/>
			<output>
				<port id="0" precision="FP16">
					<dim>1</dim>
					<dim>64</dim>
					<dim>1</dim>
					<dim>1</dim>
				</port>
			</output>
		</layer>
		<layer id="131" name="model/tfc3_2/sequential_6/tf_bottleneck_3/tf_conv_19/conv2d_19/BiasAdd/ReadVariableOp" type="Convert" version="opset1">
			<data destination_type="f32"/>
			<rt_info>
				<attribute name="decompression" version="0"/>
				<attribute name="fused_names" version="0" value="model/tfc3_2/sequential_6/tf_bottleneck_3/tf_conv_19/conv2d_19/BiasAdd/ReadVariableOp"/>
			</rt_info>
			<input>
				<port id="0" precision="FP16">
					<dim>1</dim>
					<dim>64</dim>
					<dim>1</dim>
					<dim>1</dim>
				</port>
			</input>
			<output>
				<port id="1" precision="FP32" names="model/tfc3_2/sequential_6/tf_bottleneck_3/tf_conv_19/conv2d_19/BiasAdd/ReadVariableOp:0">
					<dim>1</dim>
					<dim>64</dim>
					<dim>1</dim>
					<dim>1</dim>
				</port>
			</output>
		</layer>
		<layer id="132" name="model/tfc3_2/sequential_6/tf_bottleneck_3/tf_conv_19/conv2d_19/BiasAdd/Add" type="Add" version="opset1">
			<data auto_broadcast="numpy"/>
			<rt_info>
				<attribute name="fused_names" version="0" value="model/tfc3_2/sequential_6/tf_bottleneck_3/tf_conv_19/conv2d_19/BiasAdd/Add, model/tfc3_2/sequential_6/tf_bottleneck_3/tf_conv_19/mul"/>
			</rt_info>
			<input>
				<port id="0" precision="FP32">
					<dim>1</dim>
					<dim>64</dim>
					<dim>32</dim>
					<dim>40</dim>
				</port>
				<port id="1" precision="FP32">
					<dim>1</dim>
					<dim>64</dim>
					<dim>1</dim>
					<dim>1</dim>
				</port>
			</input>
			<output>
				<port id="2" precision="FP32" names="model/tfc3_2/sequential_6/tf_bottleneck_3/tf_conv_19/Identity:0,model/tfc3_2/sequential_6/tf_bottleneck_3/tf_conv_19/conv2d_19/BiasAdd:0,model/tfc3_2/sequential_6/tf_bottleneck_3/tf_conv_19/mul:0">
					<dim>1</dim>
					<dim>64</dim>
					<dim>32</dim>
					<dim>40</dim>
				</port>
			</output>
		</layer>
		<layer id="133" name="model/tfc3_2/sequential_6/tf_bottleneck_3/tf_conv_19/mul_1" type="Swish" version="opset4">
			<rt_info>
				<attribute name="fused_names" version="0" value="model/tfc3_2/sequential_6/tf_bottleneck_3/tf_conv_19/Sigmoid, model/tfc3_2/sequential_6/tf_bottleneck_3/tf_conv_19/mul_1"/>
			</rt_info>
			<input>
				<port id="0" precision="FP32">
					<dim>1</dim>
					<dim>64</dim>
					<dim>32</dim>
					<dim>40</dim>
				</port>
			</input>
			<output>
				<port id="1" precision="FP32" names="model/tfc3_2/sequential_6/tf_bottleneck_3/tf_conv_19/IdentityN:0,model/tfc3_2/sequential_6/tf_bottleneck_3/tf_conv_19/mul_1:0">
					<dim>1</dim>
					<dim>64</dim>
					<dim>32</dim>
					<dim>40</dim>
				</port>
			</output>
		</layer>
		<layer id="134" name="model/tfc3_2/sequential_6/tf_bottleneck_3/tf_conv_20/conv2d_20/Conv2D/ReadVariableOp_compressed" type="Const" version="opset1">
			<data element_type="f16" shape="64, 64, 3, 3" offset="289600" size="73728"/>
			<output>
				<port id="0" precision="FP16">
					<dim>64</dim>
					<dim>64</dim>
					<dim>3</dim>
					<dim>3</dim>
				</port>
			</output>
		</layer>
		<layer id="135" name="model/tfc3_2/sequential_6/tf_bottleneck_3/tf_conv_20/conv2d_20/Conv2D/ReadVariableOp" type="Convert" version="opset1">
			<data destination_type="f32"/>
			<rt_info>
				<attribute name="decompression" version="0"/>
				<attribute name="fused_names" version="0" value="model/tfc3_2/sequential_6/tf_bottleneck_3/tf_conv_20/conv2d_20/Conv2D/ReadVariableOp"/>
			</rt_info>
			<input>
				<port id="0" precision="FP16">
					<dim>64</dim>
					<dim>64</dim>
					<dim>3</dim>
					<dim>3</dim>
				</port>
			</input>
			<output>
				<port id="1" precision="FP32" names="model/tfc3_2/sequential_6/tf_bottleneck_3/tf_conv_20/conv2d_20/Conv2D/ReadVariableOp:0">
					<dim>64</dim>
					<dim>64</dim>
					<dim>3</dim>
					<dim>3</dim>
				</port>
			</output>
		</layer>
		<layer id="136" name="model/tfc3_2/sequential_6/tf_bottleneck_3/tf_conv_20/conv2d_20/Conv2D" type="Convolution" version="opset1">
			<data strides="1, 1" dilations="1, 1" pads_begin="0, 0" pads_end="0, 0" auto_pad="same_upper"/>
			<rt_info>
				<attribute name="fused_names" version="0" value="model/tfc3_2/sequential_6/tf_bottleneck_3/tf_conv_20/conv2d_20/Conv2D"/>
			</rt_info>
			<input>
				<port id="0" precision="FP32">
					<dim>1</dim>
					<dim>64</dim>
					<dim>32</dim>
					<dim>40</dim>
				</port>
				<port id="1" precision="FP32">
					<dim>64</dim>
					<dim>64</dim>
					<dim>3</dim>
					<dim>3</dim>
				</port>
			</input>
			<output>
				<port id="2" precision="FP32" names="model/tfc3_2/sequential_6/tf_bottleneck_3/tf_conv_20/conv2d_20/Conv2D:0">
					<dim>1</dim>
					<dim>64</dim>
					<dim>32</dim>
					<dim>40</dim>
				</port>
			</output>
		</layer>
		<layer id="137" name="model/tfc3_2/sequential_6/tf_bottleneck_3/tf_conv_20/conv2d_20/BiasAdd/ReadVariableOp_compressed" type="Const" version="opset1">
			<data element_type="f16" shape="1, 64, 1, 1" offset="363328" size="128"/>
			<output>
				<port id="0" precision="FP16">
					<dim>1</dim>
					<dim>64</dim>
					<dim>1</dim>
					<dim>1</dim>
				</port>
			</output>
		</layer>
		<layer id="138" name="model/tfc3_2/sequential_6/tf_bottleneck_3/tf_conv_20/conv2d_20/BiasAdd/ReadVariableOp" type="Convert" version="opset1">
			<data destination_type="f32"/>
			<rt_info>
				<attribute name="decompression" version="0"/>
				<attribute name="fused_names" version="0" value="model/tfc3_2/sequential_6/tf_bottleneck_3/tf_conv_20/conv2d_20/BiasAdd/ReadVariableOp"/>
			</rt_info>
			<input>
				<port id="0" precision="FP16">
					<dim>1</dim>
					<dim>64</dim>
					<dim>1</dim>
					<dim>1</dim>
				</port>
			</input>
			<output>
				<port id="1" precision="FP32" names="model/tfc3_2/sequential_6/tf_bottleneck_3/tf_conv_20/conv2d_20/BiasAdd/ReadVariableOp:0">
					<dim>1</dim>
					<dim>64</dim>
					<dim>1</dim>
					<dim>1</dim>
				</port>
			</output>
		</layer>
		<layer id="139" name="model/tfc3_2/sequential_6/tf_bottleneck_3/tf_conv_20/conv2d_20/BiasAdd/Add" type="Add" version="opset1">
			<data auto_broadcast="numpy"/>
			<rt_info>
				<attribute name="fused_names" version="0" value="model/tfc3_2/sequential_6/tf_bottleneck_3/tf_conv_20/conv2d_20/BiasAdd/Add, model/tfc3_2/sequential_6/tf_bottleneck_3/tf_conv_20/mul"/>
			</rt_info>
			<input>
				<port id="0" precision="FP32">
					<dim>1</dim>
					<dim>64</dim>
					<dim>32</dim>
					<dim>40</dim>
				</port>
				<port id="1" precision="FP32">
					<dim>1</dim>
					<dim>64</dim>
					<dim>1</dim>
					<dim>1</dim>
				</port>
			</input>
			<output>
				<port id="2" precision="FP32" names="model/tfc3_2/sequential_6/tf_bottleneck_3/tf_conv_20/Identity:0,model/tfc3_2/sequential_6/tf_bottleneck_3/tf_conv_20/conv2d_20/BiasAdd:0,model/tfc3_2/sequential_6/tf_bottleneck_3/tf_conv_20/mul:0">
					<dim>1</dim>
					<dim>64</dim>
					<dim>32</dim>
					<dim>40</dim>
				</port>
			</output>
		</layer>
		<layer id="140" name="model/tfc3_2/sequential_6/tf_bottleneck_3/tf_conv_20/mul_1" type="Swish" version="opset4">
			<rt_info>
				<attribute name="fused_names" version="0" value="model/tfc3_2/sequential_6/tf_bottleneck_3/tf_conv_20/Sigmoid, model/tfc3_2/sequential_6/tf_bottleneck_3/tf_conv_20/mul_1"/>
			</rt_info>
			<input>
				<port id="0" precision="FP32">
					<dim>1</dim>
					<dim>64</dim>
					<dim>32</dim>
					<dim>40</dim>
				</port>
			</input>
			<output>
				<port id="1" precision="FP32" names="model/tfc3_2/sequential_6/tf_bottleneck_3/tf_conv_20/IdentityN:0,model/tfc3_2/sequential_6/tf_bottleneck_3/tf_conv_20/mul_1:0">
					<dim>1</dim>
					<dim>64</dim>
					<dim>32</dim>
					<dim>40</dim>
				</port>
			</output>
		</layer>
		<layer id="141" name="model/tfc3_2/sequential_6/tf_bottleneck_3/add" type="Add" version="opset1">
			<data auto_broadcast="numpy"/>
			<rt_info>
				<attribute name="fused_names" version="0" value="model/tfc3_2/sequential_6/tf_bottleneck_3/add"/>
			</rt_info>
			<input>
				<port id="0" precision="FP32">
					<dim>1</dim>
					<dim>64</dim>
					<dim>32</dim>
					<dim>40</dim>
				</port>
				<port id="1" precision="FP32">
					<dim>1</dim>
					<dim>64</dim>
					<dim>32</dim>
					<dim>40</dim>
				</port>
			</input>
			<output>
				<port id="2" precision="FP32" names="model/tfc3_2/sequential_6/tf_bottleneck_3/add:0">
					<dim>1</dim>
					<dim>64</dim>
					<dim>32</dim>
					<dim>40</dim>
				</port>
			</output>
		</layer>
		<layer id="142" name="model/tfc3_2/sequential_6/tf_bottleneck_4/tf_conv_21/conv2d_21/Conv2D/ReadVariableOp_compressed" type="Const" version="opset1">
			<data element_type="f16" shape="64, 64, 1, 1" offset="363456" size="8192"/>
			<output>
				<port id="0" precision="FP16">
					<dim>64</dim>
					<dim>64</dim>
					<dim>1</dim>
					<dim>1</dim>
				</port>
			</output>
		</layer>
		<layer id="143" name="model/tfc3_2/sequential_6/tf_bottleneck_4/tf_conv_21/conv2d_21/Conv2D/ReadVariableOp" type="Convert" version="opset1">
			<data destination_type="f32"/>
			<rt_info>
				<attribute name="decompression" version="0"/>
				<attribute name="fused_names" version="0" value="model/tfc3_2/sequential_6/tf_bottleneck_4/tf_conv_21/conv2d_21/Conv2D/ReadVariableOp"/>
			</rt_info>
			<input>
				<port id="0" precision="FP16">
					<dim>64</dim>
					<dim>64</dim>
					<dim>1</dim>
					<dim>1</dim>
				</port>
			</input>
			<output>
				<port id="1" precision="FP32" names="model/tfc3_2/sequential_6/tf_bottleneck_4/tf_conv_21/conv2d_21/Conv2D/ReadVariableOp:0">
					<dim>64</dim>
					<dim>64</dim>
					<dim>1</dim>
					<dim>1</dim>
				</port>
			</output>
		</layer>
		<layer id="144" name="model/tfc3_2/sequential_6/tf_bottleneck_4/tf_conv_21/conv2d_21/Conv2D" type="Convolution" version="opset1">
			<data strides="1, 1" dilations="1, 1" pads_begin="0, 0" pads_end="0, 0" auto_pad="same_upper"/>
			<rt_info>
				<attribute name="fused_names" version="0" value="model/tfc3_2/sequential_6/tf_bottleneck_4/tf_conv_21/conv2d_21/Conv2D"/>
			</rt_info>
			<input>
				<port id="0" precision="FP32">
					<dim>1</dim>
					<dim>64</dim>
					<dim>32</dim>
					<dim>40</dim>
				</port>
				<port id="1" precision="FP32">
					<dim>64</dim>
					<dim>64</dim>
					<dim>1</dim>
					<dim>1</dim>
				</port>
			</input>
			<output>
				<port id="2" precision="FP32" names="model/tfc3_2/sequential_6/tf_bottleneck_4/tf_conv_21/conv2d_21/Conv2D:0">
					<dim>1</dim>
					<dim>64</dim>
					<dim>32</dim>
					<dim>40</dim>
				</port>
			</output>
		</layer>
		<layer id="145" name="model/tfc3_2/sequential_6/tf_bottleneck_4/tf_conv_21/conv2d_21/BiasAdd/ReadVariableOp_compressed" type="Const" version="opset1">
			<data element_type="f16" shape="1, 64, 1, 1" offset="371648" size="128"/>
			<output>
				<port id="0" precision="FP16">
					<dim>1</dim>
					<dim>64</dim>
					<dim>1</dim>
					<dim>1</dim>
				</port>
			</output>
		</layer>
		<layer id="146" name="model/tfc3_2/sequential_6/tf_bottleneck_4/tf_conv_21/conv2d_21/BiasAdd/ReadVariableOp" type="Convert" version="opset1">
			<data destination_type="f32"/>
			<rt_info>
				<attribute name="decompression" version="0"/>
				<attribute name="fused_names" version="0" value="model/tfc3_2/sequential_6/tf_bottleneck_4/tf_conv_21/conv2d_21/BiasAdd/ReadVariableOp"/>
			</rt_info>
			<input>
				<port id="0" precision="FP16">
					<dim>1</dim>
					<dim>64</dim>
					<dim>1</dim>
					<dim>1</dim>
				</port>
			</input>
			<output>
				<port id="1" precision="FP32" names="model/tfc3_2/sequential_6/tf_bottleneck_4/tf_conv_21/conv2d_21/BiasAdd/ReadVariableOp:0">
					<dim>1</dim>
					<dim>64</dim>
					<dim>1</dim>
					<dim>1</dim>
				</port>
			</output>
		</layer>
		<layer id="147" name="model/tfc3_2/sequential_6/tf_bottleneck_4/tf_conv_21/conv2d_21/BiasAdd/Add" type="Add" version="opset1">
			<data auto_broadcast="numpy"/>
			<rt_info>
				<attribute name="fused_names" version="0" value="model/tfc3_2/sequential_6/tf_bottleneck_4/tf_conv_21/conv2d_21/BiasAdd/Add, model/tfc3_2/sequential_6/tf_bottleneck_4/tf_conv_21/mul"/>
			</rt_info>
			<input>
				<port id="0" precision="FP32">
					<dim>1</dim>
					<dim>64</dim>
					<dim>32</dim>
					<dim>40</dim>
				</port>
				<port id="1" precision="FP32">
					<dim>1</dim>
					<dim>64</dim>
					<dim>1</dim>
					<dim>1</dim>
				</port>
			</input>
			<output>
				<port id="2" precision="FP32" names="model/tfc3_2/sequential_6/tf_bottleneck_4/tf_conv_21/Identity:0,model/tfc3_2/sequential_6/tf_bottleneck_4/tf_conv_21/conv2d_21/BiasAdd:0,model/tfc3_2/sequential_6/tf_bottleneck_4/tf_conv_21/mul:0">
					<dim>1</dim>
					<dim>64</dim>
					<dim>32</dim>
					<dim>40</dim>
				</port>
			</output>
		</layer>
		<layer id="148" name="model/tfc3_2/sequential_6/tf_bottleneck_4/tf_conv_21/mul_1" type="Swish" version="opset4">
			<rt_info>
				<attribute name="fused_names" version="0" value="model/tfc3_2/sequential_6/tf_bottleneck_4/tf_conv_21/Sigmoid, model/tfc3_2/sequential_6/tf_bottleneck_4/tf_conv_21/mul_1"/>
			</rt_info>
			<input>
				<port id="0" precision="FP32">
					<dim>1</dim>
					<dim>64</dim>
					<dim>32</dim>
					<dim>40</dim>
				</port>
			</input>
			<output>
				<port id="1" precision="FP32" names="model/tfc3_2/sequential_6/tf_bottleneck_4/tf_conv_21/IdentityN:0,model/tfc3_2/sequential_6/tf_bottleneck_4/tf_conv_21/mul_1:0">
					<dim>1</dim>
					<dim>64</dim>
					<dim>32</dim>
					<dim>40</dim>
				</port>
			</output>
		</layer>
		<layer id="149" name="model/tfc3_2/sequential_6/tf_bottleneck_4/tf_conv_22/conv2d_22/Conv2D/ReadVariableOp_compressed" type="Const" version="opset1">
			<data element_type="f16" shape="64, 64, 3, 3" offset="371776" size="73728"/>
			<output>
				<port id="0" precision="FP16">
					<dim>64</dim>
					<dim>64</dim>
					<dim>3</dim>
					<dim>3</dim>
				</port>
			</output>
		</layer>
		<layer id="150" name="model/tfc3_2/sequential_6/tf_bottleneck_4/tf_conv_22/conv2d_22/Conv2D/ReadVariableOp" type="Convert" version="opset1">
			<data destination_type="f32"/>
			<rt_info>
				<attribute name="decompression" version="0"/>
				<attribute name="fused_names" version="0" value="model/tfc3_2/sequential_6/tf_bottleneck_4/tf_conv_22/conv2d_22/Conv2D/ReadVariableOp"/>
			</rt_info>
			<input>
				<port id="0" precision="FP16">
					<dim>64</dim>
					<dim>64</dim>
					<dim>3</dim>
					<dim>3</dim>
				</port>
			</input>
			<output>
				<port id="1" precision="FP32" names="model/tfc3_2/sequential_6/tf_bottleneck_4/tf_conv_22/conv2d_22/Conv2D/ReadVariableOp:0">
					<dim>64</dim>
					<dim>64</dim>
					<dim>3</dim>
					<dim>3</dim>
				</port>
			</output>
		</layer>
		<layer id="151" name="model/tfc3_2/sequential_6/tf_bottleneck_4/tf_conv_22/conv2d_22/Conv2D" type="Convolution" version="opset1">
			<data strides="1, 1" dilations="1, 1" pads_begin="0, 0" pads_end="0, 0" auto_pad="same_upper"/>
			<rt_info>
				<attribute name="fused_names" version="0" value="model/tfc3_2/sequential_6/tf_bottleneck_4/tf_conv_22/conv2d_22/Conv2D"/>
			</rt_info>
			<input>
				<port id="0" precision="FP32">
					<dim>1</dim>
					<dim>64</dim>
					<dim>32</dim>
					<dim>40</dim>
				</port>
				<port id="1" precision="FP32">
					<dim>64</dim>
					<dim>64</dim>
					<dim>3</dim>
					<dim>3</dim>
				</port>
			</input>
			<output>
				<port id="2" precision="FP32" names="model/tfc3_2/sequential_6/tf_bottleneck_4/tf_conv_22/conv2d_22/Conv2D:0">
					<dim>1</dim>
					<dim>64</dim>
					<dim>32</dim>
					<dim>40</dim>
				</port>
			</output>
		</layer>
		<layer id="152" name="model/tfc3_2/sequential_6/tf_bottleneck_4/tf_conv_22/conv2d_22/BiasAdd/ReadVariableOp_compressed" type="Const" version="opset1">
			<data element_type="f16" shape="1, 64, 1, 1" offset="445504" size="128"/>
			<output>
				<port id="0" precision="FP16">
					<dim>1</dim>
					<dim>64</dim>
					<dim>1</dim>
					<dim>1</dim>
				</port>
			</output>
		</layer>
		<layer id="153" name="model/tfc3_2/sequential_6/tf_bottleneck_4/tf_conv_22/conv2d_22/BiasAdd/ReadVariableOp" type="Convert" version="opset1">
			<data destination_type="f32"/>
			<rt_info>
				<attribute name="decompression" version="0"/>
				<attribute name="fused_names" version="0" value="model/tfc3_2/sequential_6/tf_bottleneck_4/tf_conv_22/conv2d_22/BiasAdd/ReadVariableOp"/>
			</rt_info>
			<input>
				<port id="0" precision="FP16">
					<dim>1</dim>
					<dim>64</dim>
					<dim>1</dim>
					<dim>1</dim>
				</port>
			</input>
			<output>
				<port id="1" precision="FP32" names="model/tfc3_2/sequential_6/tf_bottleneck_4/tf_conv_22/conv2d_22/BiasAdd/ReadVariableOp:0">
					<dim>1</dim>
					<dim>64</dim>
					<dim>1</dim>
					<dim>1</dim>
				</port>
			</output>
		</layer>
		<layer id="154" name="model/tfc3_2/sequential_6/tf_bottleneck_4/tf_conv_22/conv2d_22/BiasAdd/Add" type="Add" version="opset1">
			<data auto_broadcast="numpy"/>
			<rt_info>
				<attribute name="fused_names" version="0" value="model/tfc3_2/sequential_6/tf_bottleneck_4/tf_conv_22/conv2d_22/BiasAdd/Add, model/tfc3_2/sequential_6/tf_bottleneck_4/tf_conv_22/mul"/>
			</rt_info>
			<input>
				<port id="0" precision="FP32">
					<dim>1</dim>
					<dim>64</dim>
					<dim>32</dim>
					<dim>40</dim>
				</port>
				<port id="1" precision="FP32">
					<dim>1</dim>
					<dim>64</dim>
					<dim>1</dim>
					<dim>1</dim>
				</port>
			</input>
			<output>
				<port id="2" precision="FP32" names="model/tfc3_2/sequential_6/tf_bottleneck_4/tf_conv_22/Identity:0,model/tfc3_2/sequential_6/tf_bottleneck_4/tf_conv_22/conv2d_22/BiasAdd:0,model/tfc3_2/sequential_6/tf_bottleneck_4/tf_conv_22/mul:0">
					<dim>1</dim>
					<dim>64</dim>
					<dim>32</dim>
					<dim>40</dim>
				</port>
			</output>
		</layer>
		<layer id="155" name="model/tfc3_2/sequential_6/tf_bottleneck_4/tf_conv_22/mul_1" type="Swish" version="opset4">
			<rt_info>
				<attribute name="fused_names" version="0" value="model/tfc3_2/sequential_6/tf_bottleneck_4/tf_conv_22/Sigmoid, model/tfc3_2/sequential_6/tf_bottleneck_4/tf_conv_22/mul_1"/>
			</rt_info>
			<input>
				<port id="0" precision="FP32">
					<dim>1</dim>
					<dim>64</dim>
					<dim>32</dim>
					<dim>40</dim>
				</port>
			</input>
			<output>
				<port id="1" precision="FP32" names="model/tfc3_2/sequential_6/tf_bottleneck_4/tf_conv_22/IdentityN:0,model/tfc3_2/sequential_6/tf_bottleneck_4/tf_conv_22/mul_1:0">
					<dim>1</dim>
					<dim>64</dim>
					<dim>32</dim>
					<dim>40</dim>
				</port>
			</output>
		</layer>
		<layer id="156" name="model/tfc3_2/sequential_6/tf_bottleneck_4/add" type="Add" version="opset1">
			<data auto_broadcast="numpy"/>
			<rt_info>
				<attribute name="fused_names" version="0" value="model/tfc3_2/sequential_6/tf_bottleneck_4/add"/>
			</rt_info>
			<input>
				<port id="0" precision="FP32">
					<dim>1</dim>
					<dim>64</dim>
					<dim>32</dim>
					<dim>40</dim>
				</port>
				<port id="1" precision="FP32">
					<dim>1</dim>
					<dim>64</dim>
					<dim>32</dim>
					<dim>40</dim>
				</port>
			</input>
			<output>
				<port id="2" precision="FP32" names="model/tfc3_2/sequential_6/tf_bottleneck_4/add:0">
					<dim>1</dim>
					<dim>64</dim>
					<dim>32</dim>
					<dim>40</dim>
				</port>
			</output>
		</layer>
		<layer id="157" name="model/tfc3_2/sequential_6/tf_bottleneck_5/tf_conv_23/conv2d_23/Conv2D/ReadVariableOp_compressed" type="Const" version="opset1">
			<data element_type="f16" shape="64, 64, 1, 1" offset="445632" size="8192"/>
			<output>
				<port id="0" precision="FP16">
					<dim>64</dim>
					<dim>64</dim>
					<dim>1</dim>
					<dim>1</dim>
				</port>
			</output>
		</layer>
		<layer id="158" name="model/tfc3_2/sequential_6/tf_bottleneck_5/tf_conv_23/conv2d_23/Conv2D/ReadVariableOp" type="Convert" version="opset1">
			<data destination_type="f32"/>
			<rt_info>
				<attribute name="decompression" version="0"/>
				<attribute name="fused_names" version="0" value="model/tfc3_2/sequential_6/tf_bottleneck_5/tf_conv_23/conv2d_23/Conv2D/ReadVariableOp"/>
			</rt_info>
			<input>
				<port id="0" precision="FP16">
					<dim>64</dim>
					<dim>64</dim>
					<dim>1</dim>
					<dim>1</dim>
				</port>
			</input>
			<output>
				<port id="1" precision="FP32" names="model/tfc3_2/sequential_6/tf_bottleneck_5/tf_conv_23/conv2d_23/Conv2D/ReadVariableOp:0">
					<dim>64</dim>
					<dim>64</dim>
					<dim>1</dim>
					<dim>1</dim>
				</port>
			</output>
		</layer>
		<layer id="159" name="model/tfc3_2/sequential_6/tf_bottleneck_5/tf_conv_23/conv2d_23/Conv2D" type="Convolution" version="opset1">
			<data strides="1, 1" dilations="1, 1" pads_begin="0, 0" pads_end="0, 0" auto_pad="same_upper"/>
			<rt_info>
				<attribute name="fused_names" version="0" value="model/tfc3_2/sequential_6/tf_bottleneck_5/tf_conv_23/conv2d_23/Conv2D"/>
			</rt_info>
			<input>
				<port id="0" precision="FP32">
					<dim>1</dim>
					<dim>64</dim>
					<dim>32</dim>
					<dim>40</dim>
				</port>
				<port id="1" precision="FP32">
					<dim>64</dim>
					<dim>64</dim>
					<dim>1</dim>
					<dim>1</dim>
				</port>
			</input>
			<output>
				<port id="2" precision="FP32" names="model/tfc3_2/sequential_6/tf_bottleneck_5/tf_conv_23/conv2d_23/Conv2D:0">
					<dim>1</dim>
					<dim>64</dim>
					<dim>32</dim>
					<dim>40</dim>
				</port>
			</output>
		</layer>
		<layer id="160" name="model/tfc3_2/sequential_6/tf_bottleneck_5/tf_conv_23/conv2d_23/BiasAdd/ReadVariableOp_compressed" type="Const" version="opset1">
			<data element_type="f16" shape="1, 64, 1, 1" offset="453824" size="128"/>
			<output>
				<port id="0" precision="FP16">
					<dim>1</dim>
					<dim>64</dim>
					<dim>1</dim>
					<dim>1</dim>
				</port>
			</output>
		</layer>
		<layer id="161" name="model/tfc3_2/sequential_6/tf_bottleneck_5/tf_conv_23/conv2d_23/BiasAdd/ReadVariableOp" type="Convert" version="opset1">
			<data destination_type="f32"/>
			<rt_info>
				<attribute name="decompression" version="0"/>
				<attribute name="fused_names" version="0" value="model/tfc3_2/sequential_6/tf_bottleneck_5/tf_conv_23/conv2d_23/BiasAdd/ReadVariableOp"/>
			</rt_info>
			<input>
				<port id="0" precision="FP16">
					<dim>1</dim>
					<dim>64</dim>
					<dim>1</dim>
					<dim>1</dim>
				</port>
			</input>
			<output>
				<port id="1" precision="FP32" names="model/tfc3_2/sequential_6/tf_bottleneck_5/tf_conv_23/conv2d_23/BiasAdd/ReadVariableOp:0">
					<dim>1</dim>
					<dim>64</dim>
					<dim>1</dim>
					<dim>1</dim>
				</port>
			</output>
		</layer>
		<layer id="162" name="model/tfc3_2/sequential_6/tf_bottleneck_5/tf_conv_23/conv2d_23/BiasAdd/Add" type="Add" version="opset1">
			<data auto_broadcast="numpy"/>
			<rt_info>
				<attribute name="fused_names" version="0" value="model/tfc3_2/sequential_6/tf_bottleneck_5/tf_conv_23/conv2d_23/BiasAdd/Add, model/tfc3_2/sequential_6/tf_bottleneck_5/tf_conv_23/mul"/>
			</rt_info>
			<input>
				<port id="0" precision="FP32">
					<dim>1</dim>
					<dim>64</dim>
					<dim>32</dim>
					<dim>40</dim>
				</port>
				<port id="1" precision="FP32">
					<dim>1</dim>
					<dim>64</dim>
					<dim>1</dim>
					<dim>1</dim>
				</port>
			</input>
			<output>
				<port id="2" precision="FP32" names="model/tfc3_2/sequential_6/tf_bottleneck_5/tf_conv_23/Identity:0,model/tfc3_2/sequential_6/tf_bottleneck_5/tf_conv_23/conv2d_23/BiasAdd:0,model/tfc3_2/sequential_6/tf_bottleneck_5/tf_conv_23/mul:0">
					<dim>1</dim>
					<dim>64</dim>
					<dim>32</dim>
					<dim>40</dim>
				</port>
			</output>
		</layer>
		<layer id="163" name="model/tfc3_2/sequential_6/tf_bottleneck_5/tf_conv_23/mul_1" type="Swish" version="opset4">
			<rt_info>
				<attribute name="fused_names" version="0" value="model/tfc3_2/sequential_6/tf_bottleneck_5/tf_conv_23/Sigmoid, model/tfc3_2/sequential_6/tf_bottleneck_5/tf_conv_23/mul_1"/>
			</rt_info>
			<input>
				<port id="0" precision="FP32">
					<dim>1</dim>
					<dim>64</dim>
					<dim>32</dim>
					<dim>40</dim>
				</port>
			</input>
			<output>
				<port id="1" precision="FP32" names="model/tfc3_2/sequential_6/tf_bottleneck_5/tf_conv_23/IdentityN:0,model/tfc3_2/sequential_6/tf_bottleneck_5/tf_conv_23/mul_1:0">
					<dim>1</dim>
					<dim>64</dim>
					<dim>32</dim>
					<dim>40</dim>
				</port>
			</output>
		</layer>
		<layer id="164" name="model/tfc3_2/sequential_6/tf_bottleneck_5/tf_conv_24/conv2d_24/Conv2D/ReadVariableOp_compressed" type="Const" version="opset1">
			<data element_type="f16" shape="64, 64, 3, 3" offset="453952" size="73728"/>
			<output>
				<port id="0" precision="FP16">
					<dim>64</dim>
					<dim>64</dim>
					<dim>3</dim>
					<dim>3</dim>
				</port>
			</output>
		</layer>
		<layer id="165" name="model/tfc3_2/sequential_6/tf_bottleneck_5/tf_conv_24/conv2d_24/Conv2D/ReadVariableOp" type="Convert" version="opset1">
			<data destination_type="f32"/>
			<rt_info>
				<attribute name="decompression" version="0"/>
				<attribute name="fused_names" version="0" value="model/tfc3_2/sequential_6/tf_bottleneck_5/tf_conv_24/conv2d_24/Conv2D/ReadVariableOp"/>
			</rt_info>
			<input>
				<port id="0" precision="FP16">
					<dim>64</dim>
					<dim>64</dim>
					<dim>3</dim>
					<dim>3</dim>
				</port>
			</input>
			<output>
				<port id="1" precision="FP32" names="model/tfc3_2/sequential_6/tf_bottleneck_5/tf_conv_24/conv2d_24/Conv2D/ReadVariableOp:0">
					<dim>64</dim>
					<dim>64</dim>
					<dim>3</dim>
					<dim>3</dim>
				</port>
			</output>
		</layer>
		<layer id="166" name="model/tfc3_2/sequential_6/tf_bottleneck_5/tf_conv_24/conv2d_24/Conv2D" type="Convolution" version="opset1">
			<data strides="1, 1" dilations="1, 1" pads_begin="0, 0" pads_end="0, 0" auto_pad="same_upper"/>
			<rt_info>
				<attribute name="fused_names" version="0" value="model/tfc3_2/sequential_6/tf_bottleneck_5/tf_conv_24/conv2d_24/Conv2D"/>
			</rt_info>
			<input>
				<port id="0" precision="FP32">
					<dim>1</dim>
					<dim>64</dim>
					<dim>32</dim>
					<dim>40</dim>
				</port>
				<port id="1" precision="FP32">
					<dim>64</dim>
					<dim>64</dim>
					<dim>3</dim>
					<dim>3</dim>
				</port>
			</input>
			<output>
				<port id="2" precision="FP32" names="model/tfc3_2/sequential_6/tf_bottleneck_5/tf_conv_24/conv2d_24/Conv2D:0">
					<dim>1</dim>
					<dim>64</dim>
					<dim>32</dim>
					<dim>40</dim>
				</port>
			</output>
		</layer>
		<layer id="167" name="model/tfc3_2/sequential_6/tf_bottleneck_5/tf_conv_24/conv2d_24/BiasAdd/ReadVariableOp_compressed" type="Const" version="opset1">
			<data element_type="f16" shape="1, 64, 1, 1" offset="527680" size="128"/>
			<output>
				<port id="0" precision="FP16">
					<dim>1</dim>
					<dim>64</dim>
					<dim>1</dim>
					<dim>1</dim>
				</port>
			</output>
		</layer>
		<layer id="168" name="model/tfc3_2/sequential_6/tf_bottleneck_5/tf_conv_24/conv2d_24/BiasAdd/ReadVariableOp" type="Convert" version="opset1">
			<data destination_type="f32"/>
			<rt_info>
				<attribute name="decompression" version="0"/>
				<attribute name="fused_names" version="0" value="model/tfc3_2/sequential_6/tf_bottleneck_5/tf_conv_24/conv2d_24/BiasAdd/ReadVariableOp"/>
			</rt_info>
			<input>
				<port id="0" precision="FP16">
					<dim>1</dim>
					<dim>64</dim>
					<dim>1</dim>
					<dim>1</dim>
				</port>
			</input>
			<output>
				<port id="1" precision="FP32" names="model/tfc3_2/sequential_6/tf_bottleneck_5/tf_conv_24/conv2d_24/BiasAdd/ReadVariableOp:0">
					<dim>1</dim>
					<dim>64</dim>
					<dim>1</dim>
					<dim>1</dim>
				</port>
			</output>
		</layer>
		<layer id="169" name="model/tfc3_2/sequential_6/tf_bottleneck_5/tf_conv_24/conv2d_24/BiasAdd/Add" type="Add" version="opset1">
			<data auto_broadcast="numpy"/>
			<rt_info>
				<attribute name="fused_names" version="0" value="model/tfc3_2/sequential_6/tf_bottleneck_5/tf_conv_24/conv2d_24/BiasAdd/Add, model/tfc3_2/sequential_6/tf_bottleneck_5/tf_conv_24/mul"/>
			</rt_info>
			<input>
				<port id="0" precision="FP32">
					<dim>1</dim>
					<dim>64</dim>
					<dim>32</dim>
					<dim>40</dim>
				</port>
				<port id="1" precision="FP32">
					<dim>1</dim>
					<dim>64</dim>
					<dim>1</dim>
					<dim>1</dim>
				</port>
			</input>
			<output>
				<port id="2" precision="FP32" names="model/tfc3_2/sequential_6/tf_bottleneck_5/tf_conv_24/Identity:0,model/tfc3_2/sequential_6/tf_bottleneck_5/tf_conv_24/conv2d_24/BiasAdd:0,model/tfc3_2/sequential_6/tf_bottleneck_5/tf_conv_24/mul:0">
					<dim>1</dim>
					<dim>64</dim>
					<dim>32</dim>
					<dim>40</dim>
				</port>
			</output>
		</layer>
		<layer id="170" name="model/tfc3_2/sequential_6/tf_bottleneck_5/tf_conv_24/mul_1" type="Swish" version="opset4">
			<rt_info>
				<attribute name="fused_names" version="0" value="model/tfc3_2/sequential_6/tf_bottleneck_5/tf_conv_24/Sigmoid, model/tfc3_2/sequential_6/tf_bottleneck_5/tf_conv_24/mul_1"/>
			</rt_info>
			<input>
				<port id="0" precision="FP32">
					<dim>1</dim>
					<dim>64</dim>
					<dim>32</dim>
					<dim>40</dim>
				</port>
			</input>
			<output>
				<port id="1" precision="FP32" names="model/tfc3_2/sequential_6/tf_bottleneck_5/tf_conv_24/IdentityN:0,model/tfc3_2/sequential_6/tf_bottleneck_5/tf_conv_24/mul_1:0">
					<dim>1</dim>
					<dim>64</dim>
					<dim>32</dim>
					<dim>40</dim>
				</port>
			</output>
		</layer>
		<layer id="171" name="model/tfc3_2/sequential_6/tf_bottleneck_5/add" type="Add" version="opset1">
			<data auto_broadcast="numpy"/>
			<rt_info>
				<attribute name="fused_names" version="0" value="model/tfc3_2/sequential_6/tf_bottleneck_5/add"/>
			</rt_info>
			<input>
				<port id="0" precision="FP32">
					<dim>1</dim>
					<dim>64</dim>
					<dim>32</dim>
					<dim>40</dim>
				</port>
				<port id="1" precision="FP32">
					<dim>1</dim>
					<dim>64</dim>
					<dim>32</dim>
					<dim>40</dim>
				</port>
			</input>
			<output>
				<port id="2" precision="FP32" names="model/tfc3_2/sequential_6/tf_bottleneck_5/add:0">
					<dim>1</dim>
					<dim>64</dim>
					<dim>32</dim>
					<dim>40</dim>
				</port>
			</output>
		</layer>
		<layer id="172" name="model/tfc3_2/tf_conv_17/conv2d_17/Conv2D/ReadVariableOp_compressed" type="Const" version="opset1">
			<data element_type="f16" shape="64, 128, 1, 1" offset="527808" size="16384"/>
			<output>
				<port id="0" precision="FP16">
					<dim>64</dim>
					<dim>128</dim>
					<dim>1</dim>
					<dim>1</dim>
				</port>
			</output>
		</layer>
		<layer id="173" name="model/tfc3_2/tf_conv_17/conv2d_17/Conv2D/ReadVariableOp" type="Convert" version="opset1">
			<data destination_type="f32"/>
			<rt_info>
				<attribute name="decompression" version="0"/>
				<attribute name="fused_names" version="0" value="model/tfc3_2/tf_conv_17/conv2d_17/Conv2D/ReadVariableOp"/>
			</rt_info>
			<input>
				<port id="0" precision="FP16">
					<dim>64</dim>
					<dim>128</dim>
					<dim>1</dim>
					<dim>1</dim>
				</port>
			</input>
			<output>
				<port id="1" precision="FP32" names="model/tfc3_2/tf_conv_17/conv2d_17/Conv2D/ReadVariableOp:0">
					<dim>64</dim>
					<dim>128</dim>
					<dim>1</dim>
					<dim>1</dim>
				</port>
			</output>
		</layer>
		<layer id="174" name="model/tfc3_2/tf_conv_17/conv2d_17/Conv2D" type="Convolution" version="opset1">
			<data strides="1, 1" dilations="1, 1" pads_begin="0, 0" pads_end="0, 0" auto_pad="same_upper"/>
			<rt_info>
				<attribute name="fused_names" version="0" value="model/tfc3_2/tf_conv_17/conv2d_17/Conv2D"/>
			</rt_info>
			<input>
				<port id="0" precision="FP32">
					<dim>1</dim>
					<dim>128</dim>
					<dim>32</dim>
					<dim>40</dim>
				</port>
				<port id="1" precision="FP32">
					<dim>64</dim>
					<dim>128</dim>
					<dim>1</dim>
					<dim>1</dim>
				</port>
			</input>
			<output>
				<port id="2" precision="FP32" names="model/tfc3_2/tf_conv_17/conv2d_17/Conv2D:0">
					<dim>1</dim>
					<dim>64</dim>
					<dim>32</dim>
					<dim>40</dim>
				</port>
			</output>
		</layer>
		<layer id="175" name="model/tfc3_2/tf_conv_17/conv2d_17/BiasAdd/ReadVariableOp_compressed" type="Const" version="opset1">
			<data element_type="f16" shape="1, 64, 1, 1" offset="544192" size="128"/>
			<output>
				<port id="0" precision="FP16">
					<dim>1</dim>
					<dim>64</dim>
					<dim>1</dim>
					<dim>1</dim>
				</port>
			</output>
		</layer>
		<layer id="176" name="model/tfc3_2/tf_conv_17/conv2d_17/BiasAdd/ReadVariableOp" type="Convert" version="opset1">
			<data destination_type="f32"/>
			<rt_info>
				<attribute name="decompression" version="0"/>
				<attribute name="fused_names" version="0" value="model/tfc3_2/tf_conv_17/conv2d_17/BiasAdd/ReadVariableOp"/>
			</rt_info>
			<input>
				<port id="0" precision="FP16">
					<dim>1</dim>
					<dim>64</dim>
					<dim>1</dim>
					<dim>1</dim>
				</port>
			</input>
			<output>
				<port id="1" precision="FP32" names="model/tfc3_2/tf_conv_17/conv2d_17/BiasAdd/ReadVariableOp:0">
					<dim>1</dim>
					<dim>64</dim>
					<dim>1</dim>
					<dim>1</dim>
				</port>
			</output>
		</layer>
		<layer id="177" name="model/tfc3_2/tf_conv_17/conv2d_17/BiasAdd/Add" type="Add" version="opset1">
			<data auto_broadcast="numpy"/>
			<rt_info>
				<attribute name="fused_names" version="0" value="model/tfc3_2/tf_conv_17/conv2d_17/BiasAdd/Add, model/tfc3_2/tf_conv_17/mul"/>
			</rt_info>
			<input>
				<port id="0" precision="FP32">
					<dim>1</dim>
					<dim>64</dim>
					<dim>32</dim>
					<dim>40</dim>
				</port>
				<port id="1" precision="FP32">
					<dim>1</dim>
					<dim>64</dim>
					<dim>1</dim>
					<dim>1</dim>
				</port>
			</input>
			<output>
				<port id="2" precision="FP32" names="model/tfc3_2/tf_conv_17/Identity:0,model/tfc3_2/tf_conv_17/conv2d_17/BiasAdd:0,model/tfc3_2/tf_conv_17/mul:0">
					<dim>1</dim>
					<dim>64</dim>
					<dim>32</dim>
					<dim>40</dim>
				</port>
			</output>
		</layer>
		<layer id="178" name="model/tfc3_2/tf_conv_17/mul_1" type="Swish" version="opset4">
			<rt_info>
				<attribute name="fused_names" version="0" value="model/tfc3_2/tf_conv_17/Sigmoid, model/tfc3_2/tf_conv_17/mul_1"/>
			</rt_info>
			<input>
				<port id="0" precision="FP32">
					<dim>1</dim>
					<dim>64</dim>
					<dim>32</dim>
					<dim>40</dim>
				</port>
			</input>
			<output>
				<port id="1" precision="FP32" names="model/tfc3_2/tf_conv_17/IdentityN:0,model/tfc3_2/tf_conv_17/mul_1:0">
					<dim>1</dim>
					<dim>64</dim>
					<dim>32</dim>
					<dim>40</dim>
				</port>
			</output>
		</layer>
		<layer id="179" name="model/tfc3_2/concat" type="Concat" version="opset1">
			<data axis="1"/>
			<rt_info>
				<attribute name="fused_names" version="0" value="model/tfc3_2/concat"/>
			</rt_info>
			<input>
				<port id="0" precision="FP32">
					<dim>1</dim>
					<dim>64</dim>
					<dim>32</dim>
					<dim>40</dim>
				</port>
				<port id="1" precision="FP32">
					<dim>1</dim>
					<dim>64</dim>
					<dim>32</dim>
					<dim>40</dim>
				</port>
			</input>
			<output>
				<port id="2" precision="FP32" names="model/tfc3_2/concat:0">
					<dim>1</dim>
					<dim>128</dim>
					<dim>32</dim>
					<dim>40</dim>
				</port>
			</output>
		</layer>
		<layer id="180" name="model/tfc3_2/tf_conv_18/conv2d_18/Conv2D/ReadVariableOp_compressed" type="Const" version="opset1">
			<data element_type="f16" shape="128, 128, 1, 1" offset="544320" size="32768"/>
			<output>
				<port id="0" precision="FP16">
					<dim>128</dim>
					<dim>128</dim>
					<dim>1</dim>
					<dim>1</dim>
				</port>
			</output>
		</layer>
		<layer id="181" name="model/tfc3_2/tf_conv_18/conv2d_18/Conv2D/ReadVariableOp" type="Convert" version="opset1">
			<data destination_type="f32"/>
			<rt_info>
				<attribute name="decompression" version="0"/>
				<attribute name="fused_names" version="0" value="model/tfc3_2/tf_conv_18/conv2d_18/Conv2D/ReadVariableOp"/>
			</rt_info>
			<input>
				<port id="0" precision="FP16">
					<dim>128</dim>
					<dim>128</dim>
					<dim>1</dim>
					<dim>1</dim>
				</port>
			</input>
			<output>
				<port id="1" precision="FP32" names="model/tfc3_2/tf_conv_18/conv2d_18/Conv2D/ReadVariableOp:0">
					<dim>128</dim>
					<dim>128</dim>
					<dim>1</dim>
					<dim>1</dim>
				</port>
			</output>
		</layer>
		<layer id="182" name="model/tfc3_2/tf_conv_18/conv2d_18/Conv2D" type="Convolution" version="opset1">
			<data strides="1, 1" dilations="1, 1" pads_begin="0, 0" pads_end="0, 0" auto_pad="same_upper"/>
			<rt_info>
				<attribute name="fused_names" version="0" value="model/tfc3_2/tf_conv_18/conv2d_18/Conv2D"/>
			</rt_info>
			<input>
				<port id="0" precision="FP32">
					<dim>1</dim>
					<dim>128</dim>
					<dim>32</dim>
					<dim>40</dim>
				</port>
				<port id="1" precision="FP32">
					<dim>128</dim>
					<dim>128</dim>
					<dim>1</dim>
					<dim>1</dim>
				</port>
			</input>
			<output>
				<port id="2" precision="FP32" names="model/tfc3_2/tf_conv_18/conv2d_18/Conv2D:0">
					<dim>1</dim>
					<dim>128</dim>
					<dim>32</dim>
					<dim>40</dim>
				</port>
			</output>
		</layer>
		<layer id="183" name="model/tfc3_2/tf_conv_18/conv2d_18/BiasAdd/ReadVariableOp_compressed" type="Const" version="opset1">
			<data element_type="f16" shape="1, 128, 1, 1" offset="577088" size="256"/>
			<output>
				<port id="0" precision="FP16">
					<dim>1</dim>
					<dim>128</dim>
					<dim>1</dim>
					<dim>1</dim>
				</port>
			</output>
		</layer>
		<layer id="184" name="model/tfc3_2/tf_conv_18/conv2d_18/BiasAdd/ReadVariableOp" type="Convert" version="opset1">
			<data destination_type="f32"/>
			<rt_info>
				<attribute name="decompression" version="0"/>
				<attribute name="fused_names" version="0" value="model/tfc3_2/tf_conv_18/conv2d_18/BiasAdd/ReadVariableOp"/>
			</rt_info>
			<input>
				<port id="0" precision="FP16">
					<dim>1</dim>
					<dim>128</dim>
					<dim>1</dim>
					<dim>1</dim>
				</port>
			</input>
			<output>
				<port id="1" precision="FP32" names="model/tfc3_2/tf_conv_18/conv2d_18/BiasAdd/ReadVariableOp:0">
					<dim>1</dim>
					<dim>128</dim>
					<dim>1</dim>
					<dim>1</dim>
				</port>
			</output>
		</layer>
		<layer id="185" name="model/tfc3_2/tf_conv_18/conv2d_18/BiasAdd/Add" type="Add" version="opset1">
			<data auto_broadcast="numpy"/>
			<rt_info>
				<attribute name="fused_names" version="0" value="model/tfc3_2/tf_conv_18/conv2d_18/BiasAdd/Add, model/tfc3_2/tf_conv_18/mul"/>
			</rt_info>
			<input>
				<port id="0" precision="FP32">
					<dim>1</dim>
					<dim>128</dim>
					<dim>32</dim>
					<dim>40</dim>
				</port>
				<port id="1" precision="FP32">
					<dim>1</dim>
					<dim>128</dim>
					<dim>1</dim>
					<dim>1</dim>
				</port>
			</input>
			<output>
				<port id="2" precision="FP32" names="model/tfc3_2/tf_conv_18/Identity:0,model/tfc3_2/tf_conv_18/conv2d_18/BiasAdd:0,model/tfc3_2/tf_conv_18/mul:0">
					<dim>1</dim>
					<dim>128</dim>
					<dim>32</dim>
					<dim>40</dim>
				</port>
			</output>
		</layer>
		<layer id="186" name="model/tfc3_2/tf_conv_18/mul_1" type="Swish" version="opset4">
			<rt_info>
				<attribute name="fused_names" version="0" value="model/tfc3_2/tf_conv_18/Sigmoid, model/tfc3_2/tf_conv_18/mul_1"/>
			</rt_info>
			<input>
				<port id="0" precision="FP32">
					<dim>1</dim>
					<dim>128</dim>
					<dim>32</dim>
					<dim>40</dim>
				</port>
			</input>
			<output>
				<port id="1" precision="FP32" names="model/tfc3_2/tf_conv_18/IdentityN:0,model/tfc3_2/tf_conv_18/mul_1:0">
					<dim>1</dim>
					<dim>128</dim>
					<dim>32</dim>
					<dim>40</dim>
				</port>
			</output>
		</layer>
		<layer id="187" name="model/tf_conv_25/sequential_7/conv2d_25/Conv2D/ReadVariableOp_compressed" type="Const" version="opset1">
			<data element_type="f16" shape="256, 128, 3, 3" offset="577344" size="589824"/>
			<output>
				<port id="0" precision="FP16">
					<dim>256</dim>
					<dim>128</dim>
					<dim>3</dim>
					<dim>3</dim>
				</port>
			</output>
		</layer>
		<layer id="188" name="model/tf_conv_25/sequential_7/conv2d_25/Conv2D/ReadVariableOp" type="Convert" version="opset1">
			<data destination_type="f32"/>
			<rt_info>
				<attribute name="decompression" version="0"/>
				<attribute name="fused_names" version="0" value="model/tf_conv_25/sequential_7/conv2d_25/Conv2D/ReadVariableOp"/>
			</rt_info>
			<input>
				<port id="0" precision="FP16">
					<dim>256</dim>
					<dim>128</dim>
					<dim>3</dim>
					<dim>3</dim>
				</port>
			</input>
			<output>
				<port id="1" precision="FP32" names="model/tf_conv_25/sequential_7/conv2d_25/Conv2D/ReadVariableOp:0">
					<dim>256</dim>
					<dim>128</dim>
					<dim>3</dim>
					<dim>3</dim>
				</port>
			</output>
		</layer>
		<layer id="189" name="model/tf_conv_25/sequential_7/conv2d_25/Conv2D" type="Convolution" version="opset1">
			<data strides="2, 2" dilations="1, 1" pads_begin="1, 1" pads_end="1, 1" auto_pad="explicit"/>
			<rt_info>
				<attribute name="fused_names" version="0" value="model/tf_conv_25/sequential_7/conv2d_25/Conv2D, model/tf_conv_25/sequential_7/tf_pad_4/Pad"/>
			</rt_info>
			<input>
				<port id="0" precision="FP32">
					<dim>1</dim>
					<dim>128</dim>
					<dim>32</dim>
					<dim>40</dim>
				</port>
				<port id="1" precision="FP32">
					<dim>256</dim>
					<dim>128</dim>
					<dim>3</dim>
					<dim>3</dim>
				</port>
			</input>
			<output>
				<port id="2" precision="FP32" names="model/tf_conv_25/sequential_7/conv2d_25/Conv2D:0">
					<dim>1</dim>
					<dim>256</dim>
					<dim>16</dim>
					<dim>20</dim>
				</port>
			</output>
		</layer>
		<layer id="190" name="model/tf_conv_25/sequential_7/conv2d_25/BiasAdd/ReadVariableOp_compressed" type="Const" version="opset1">
			<data element_type="f16" shape="1, 256, 1, 1" offset="1167168" size="512"/>
			<output>
				<port id="0" precision="FP16">
					<dim>1</dim>
					<dim>256</dim>
					<dim>1</dim>
					<dim>1</dim>
				</port>
			</output>
		</layer>
		<layer id="191" name="model/tf_conv_25/sequential_7/conv2d_25/BiasAdd/ReadVariableOp" type="Convert" version="opset1">
			<data destination_type="f32"/>
			<rt_info>
				<attribute name="decompression" version="0"/>
				<attribute name="fused_names" version="0" value="model/tf_conv_25/sequential_7/conv2d_25/BiasAdd/ReadVariableOp"/>
			</rt_info>
			<input>
				<port id="0" precision="FP16">
					<dim>1</dim>
					<dim>256</dim>
					<dim>1</dim>
					<dim>1</dim>
				</port>
			</input>
			<output>
				<port id="1" precision="FP32" names="model/tf_conv_25/sequential_7/conv2d_25/BiasAdd/ReadVariableOp:0">
					<dim>1</dim>
					<dim>256</dim>
					<dim>1</dim>
					<dim>1</dim>
				</port>
			</output>
		</layer>
		<layer id="192" name="model/tf_conv_25/sequential_7/conv2d_25/BiasAdd/Add" type="Add" version="opset1">
			<data auto_broadcast="numpy"/>
			<rt_info>
				<attribute name="fused_names" version="0" value="model/tf_conv_25/mul, model/tf_conv_25/sequential_7/conv2d_25/BiasAdd/Add"/>
			</rt_info>
			<input>
				<port id="0" precision="FP32">
					<dim>1</dim>
					<dim>256</dim>
					<dim>16</dim>
					<dim>20</dim>
				</port>
				<port id="1" precision="FP32">
					<dim>1</dim>
					<dim>256</dim>
					<dim>1</dim>
					<dim>1</dim>
				</port>
			</input>
			<output>
				<port id="2" precision="FP32" names="model/tf_conv_25/Identity:0,model/tf_conv_25/mul:0,model/tf_conv_25/sequential_7/conv2d_25/BiasAdd:0">
					<dim>1</dim>
					<dim>256</dim>
					<dim>16</dim>
					<dim>20</dim>
				</port>
			</output>
		</layer>
		<layer id="193" name="model/tf_conv_25/mul_1" type="Swish" version="opset4">
			<rt_info>
				<attribute name="fused_names" version="0" value="model/tf_conv_25/Sigmoid, model/tf_conv_25/mul_1"/>
			</rt_info>
			<input>
				<port id="0" precision="FP32">
					<dim>1</dim>
					<dim>256</dim>
					<dim>16</dim>
					<dim>20</dim>
				</port>
			</input>
			<output>
				<port id="1" precision="FP32" names="model/tf_conv_25/IdentityN:0,model/tf_conv_25/mul_1:0">
					<dim>1</dim>
					<dim>256</dim>
					<dim>16</dim>
					<dim>20</dim>
				</port>
			</output>
		</layer>
		<layer id="194" name="model/tfc3_3/tf_conv_26/conv2d_26/Conv2D/ReadVariableOp_compressed" type="Const" version="opset1">
			<data element_type="f16" shape="128, 256, 1, 1" offset="1167680" size="65536"/>
			<output>
				<port id="0" precision="FP16">
					<dim>128</dim>
					<dim>256</dim>
					<dim>1</dim>
					<dim>1</dim>
				</port>
			</output>
		</layer>
		<layer id="195" name="model/tfc3_3/tf_conv_26/conv2d_26/Conv2D/ReadVariableOp" type="Convert" version="opset1">
			<data destination_type="f32"/>
			<rt_info>
				<attribute name="decompression" version="0"/>
				<attribute name="fused_names" version="0" value="model/tfc3_3/tf_conv_26/conv2d_26/Conv2D/ReadVariableOp"/>
			</rt_info>
			<input>
				<port id="0" precision="FP16">
					<dim>128</dim>
					<dim>256</dim>
					<dim>1</dim>
					<dim>1</dim>
				</port>
			</input>
			<output>
				<port id="1" precision="FP32" names="model/tfc3_3/tf_conv_26/conv2d_26/Conv2D/ReadVariableOp:0">
					<dim>128</dim>
					<dim>256</dim>
					<dim>1</dim>
					<dim>1</dim>
				</port>
			</output>
		</layer>
		<layer id="196" name="model/tfc3_3/tf_conv_26/conv2d_26/Conv2D" type="Convolution" version="opset1">
			<data strides="1, 1" dilations="1, 1" pads_begin="0, 0" pads_end="0, 0" auto_pad="same_upper"/>
			<rt_info>
				<attribute name="fused_names" version="0" value="model/tfc3_3/tf_conv_26/conv2d_26/Conv2D"/>
			</rt_info>
			<input>
				<port id="0" precision="FP32">
					<dim>1</dim>
					<dim>256</dim>
					<dim>16</dim>
					<dim>20</dim>
				</port>
				<port id="1" precision="FP32">
					<dim>128</dim>
					<dim>256</dim>
					<dim>1</dim>
					<dim>1</dim>
				</port>
			</input>
			<output>
				<port id="2" precision="FP32" names="model/tfc3_3/tf_conv_26/conv2d_26/Conv2D:0">
					<dim>1</dim>
					<dim>128</dim>
					<dim>16</dim>
					<dim>20</dim>
				</port>
			</output>
		</layer>
		<layer id="197" name="model/tfc3_3/tf_conv_26/conv2d_26/BiasAdd/ReadVariableOp_compressed" type="Const" version="opset1">
			<data element_type="f16" shape="1, 128, 1, 1" offset="1233216" size="256"/>
			<output>
				<port id="0" precision="FP16">
					<dim>1</dim>
					<dim>128</dim>
					<dim>1</dim>
					<dim>1</dim>
				</port>
			</output>
		</layer>
		<layer id="198" name="model/tfc3_3/tf_conv_26/conv2d_26/BiasAdd/ReadVariableOp" type="Convert" version="opset1">
			<data destination_type="f32"/>
			<rt_info>
				<attribute name="decompression" version="0"/>
				<attribute name="fused_names" version="0" value="model/tfc3_3/tf_conv_26/conv2d_26/BiasAdd/ReadVariableOp"/>
			</rt_info>
			<input>
				<port id="0" precision="FP16">
					<dim>1</dim>
					<dim>128</dim>
					<dim>1</dim>
					<dim>1</dim>
				</port>
			</input>
			<output>
				<port id="1" precision="FP32" names="model/tfc3_3/tf_conv_26/conv2d_26/BiasAdd/ReadVariableOp:0">
					<dim>1</dim>
					<dim>128</dim>
					<dim>1</dim>
					<dim>1</dim>
				</port>
			</output>
		</layer>
		<layer id="199" name="model/tfc3_3/tf_conv_26/conv2d_26/BiasAdd/Add" type="Add" version="opset1">
			<data auto_broadcast="numpy"/>
			<rt_info>
				<attribute name="fused_names" version="0" value="model/tfc3_3/tf_conv_26/conv2d_26/BiasAdd/Add, model/tfc3_3/tf_conv_26/mul"/>
			</rt_info>
			<input>
				<port id="0" precision="FP32">
					<dim>1</dim>
					<dim>128</dim>
					<dim>16</dim>
					<dim>20</dim>
				</port>
				<port id="1" precision="FP32">
					<dim>1</dim>
					<dim>128</dim>
					<dim>1</dim>
					<dim>1</dim>
				</port>
			</input>
			<output>
				<port id="2" precision="FP32" names="model/tfc3_3/tf_conv_26/Identity:0,model/tfc3_3/tf_conv_26/conv2d_26/BiasAdd:0,model/tfc3_3/tf_conv_26/mul:0">
					<dim>1</dim>
					<dim>128</dim>
					<dim>16</dim>
					<dim>20</dim>
				</port>
			</output>
		</layer>
		<layer id="200" name="model/tfc3_3/tf_conv_26/mul_1" type="Swish" version="opset4">
			<rt_info>
				<attribute name="fused_names" version="0" value="model/tfc3_3/tf_conv_26/Sigmoid, model/tfc3_3/tf_conv_26/mul_1"/>
			</rt_info>
			<input>
				<port id="0" precision="FP32">
					<dim>1</dim>
					<dim>128</dim>
					<dim>16</dim>
					<dim>20</dim>
				</port>
			</input>
			<output>
				<port id="1" precision="FP32" names="model/tfc3_3/tf_conv_26/IdentityN:0,model/tfc3_3/tf_conv_26/mul_1:0">
					<dim>1</dim>
					<dim>128</dim>
					<dim>16</dim>
					<dim>20</dim>
				</port>
			</output>
		</layer>
		<layer id="201" name="model/tfc3_3/sequential_8/tf_bottleneck_6/tf_conv_29/conv2d_29/Conv2D/ReadVariableOp_compressed" type="Const" version="opset1">
			<data element_type="f16" shape="128, 128, 1, 1" offset="1233472" size="32768"/>
			<output>
				<port id="0" precision="FP16">
					<dim>128</dim>
					<dim>128</dim>
					<dim>1</dim>
					<dim>1</dim>
				</port>
			</output>
		</layer>
		<layer id="202" name="model/tfc3_3/sequential_8/tf_bottleneck_6/tf_conv_29/conv2d_29/Conv2D/ReadVariableOp" type="Convert" version="opset1">
			<data destination_type="f32"/>
			<rt_info>
				<attribute name="decompression" version="0"/>
				<attribute name="fused_names" version="0" value="model/tfc3_3/sequential_8/tf_bottleneck_6/tf_conv_29/conv2d_29/Conv2D/ReadVariableOp"/>
			</rt_info>
			<input>
				<port id="0" precision="FP16">
					<dim>128</dim>
					<dim>128</dim>
					<dim>1</dim>
					<dim>1</dim>
				</port>
			</input>
			<output>
				<port id="1" precision="FP32" names="model/tfc3_3/sequential_8/tf_bottleneck_6/tf_conv_29/conv2d_29/Conv2D/ReadVariableOp:0">
					<dim>128</dim>
					<dim>128</dim>
					<dim>1</dim>
					<dim>1</dim>
				</port>
			</output>
		</layer>
		<layer id="203" name="model/tfc3_3/sequential_8/tf_bottleneck_6/tf_conv_29/conv2d_29/Conv2D" type="Convolution" version="opset1">
			<data strides="1, 1" dilations="1, 1" pads_begin="0, 0" pads_end="0, 0" auto_pad="same_upper"/>
			<rt_info>
				<attribute name="fused_names" version="0" value="model/tfc3_3/sequential_8/tf_bottleneck_6/tf_conv_29/conv2d_29/Conv2D"/>
			</rt_info>
			<input>
				<port id="0" precision="FP32">
					<dim>1</dim>
					<dim>128</dim>
					<dim>16</dim>
					<dim>20</dim>
				</port>
				<port id="1" precision="FP32">
					<dim>128</dim>
					<dim>128</dim>
					<dim>1</dim>
					<dim>1</dim>
				</port>
			</input>
			<output>
				<port id="2" precision="FP32" names="model/tfc3_3/sequential_8/tf_bottleneck_6/tf_conv_29/conv2d_29/Conv2D:0">
					<dim>1</dim>
					<dim>128</dim>
					<dim>16</dim>
					<dim>20</dim>
				</port>
			</output>
		</layer>
		<layer id="204" name="model/tfc3_3/sequential_8/tf_bottleneck_6/tf_conv_29/conv2d_29/BiasAdd/ReadVariableOp_compressed" type="Const" version="opset1">
			<data element_type="f16" shape="1, 128, 1, 1" offset="1266240" size="256"/>
			<output>
				<port id="0" precision="FP16">
					<dim>1</dim>
					<dim>128</dim>
					<dim>1</dim>
					<dim>1</dim>
				</port>
			</output>
		</layer>
		<layer id="205" name="model/tfc3_3/sequential_8/tf_bottleneck_6/tf_conv_29/conv2d_29/BiasAdd/ReadVariableOp" type="Convert" version="opset1">
			<data destination_type="f32"/>
			<rt_info>
				<attribute name="decompression" version="0"/>
				<attribute name="fused_names" version="0" value="model/tfc3_3/sequential_8/tf_bottleneck_6/tf_conv_29/conv2d_29/BiasAdd/ReadVariableOp"/>
			</rt_info>
			<input>
				<port id="0" precision="FP16">
					<dim>1</dim>
					<dim>128</dim>
					<dim>1</dim>
					<dim>1</dim>
				</port>
			</input>
			<output>
				<port id="1" precision="FP32" names="model/tfc3_3/sequential_8/tf_bottleneck_6/tf_conv_29/conv2d_29/BiasAdd/ReadVariableOp:0">
					<dim>1</dim>
					<dim>128</dim>
					<dim>1</dim>
					<dim>1</dim>
				</port>
			</output>
		</layer>
		<layer id="206" name="model/tfc3_3/sequential_8/tf_bottleneck_6/tf_conv_29/conv2d_29/BiasAdd/Add" type="Add" version="opset1">
			<data auto_broadcast="numpy"/>
			<rt_info>
				<attribute name="fused_names" version="0" value="model/tfc3_3/sequential_8/tf_bottleneck_6/tf_conv_29/conv2d_29/BiasAdd/Add, model/tfc3_3/sequential_8/tf_bottleneck_6/tf_conv_29/mul"/>
			</rt_info>
			<input>
				<port id="0" precision="FP32">
					<dim>1</dim>
					<dim>128</dim>
					<dim>16</dim>
					<dim>20</dim>
				</port>
				<port id="1" precision="FP32">
					<dim>1</dim>
					<dim>128</dim>
					<dim>1</dim>
					<dim>1</dim>
				</port>
			</input>
			<output>
				<port id="2" precision="FP32" names="model/tfc3_3/sequential_8/tf_bottleneck_6/tf_conv_29/Identity:0,model/tfc3_3/sequential_8/tf_bottleneck_6/tf_conv_29/conv2d_29/BiasAdd:0,model/tfc3_3/sequential_8/tf_bottleneck_6/tf_conv_29/mul:0">
					<dim>1</dim>
					<dim>128</dim>
					<dim>16</dim>
					<dim>20</dim>
				</port>
			</output>
		</layer>
		<layer id="207" name="model/tfc3_3/sequential_8/tf_bottleneck_6/tf_conv_29/mul_1" type="Swish" version="opset4">
			<rt_info>
				<attribute name="fused_names" version="0" value="model/tfc3_3/sequential_8/tf_bottleneck_6/tf_conv_29/Sigmoid, model/tfc3_3/sequential_8/tf_bottleneck_6/tf_conv_29/mul_1"/>
			</rt_info>
			<input>
				<port id="0" precision="FP32">
					<dim>1</dim>
					<dim>128</dim>
					<dim>16</dim>
					<dim>20</dim>
				</port>
			</input>
			<output>
				<port id="1" precision="FP32" names="model/tfc3_3/sequential_8/tf_bottleneck_6/tf_conv_29/IdentityN:0,model/tfc3_3/sequential_8/tf_bottleneck_6/tf_conv_29/mul_1:0">
					<dim>1</dim>
					<dim>128</dim>
					<dim>16</dim>
					<dim>20</dim>
				</port>
			</output>
		</layer>
		<layer id="208" name="model/tfc3_3/sequential_8/tf_bottleneck_6/tf_conv_30/conv2d_30/Conv2D/ReadVariableOp_compressed" type="Const" version="opset1">
			<data element_type="f16" shape="128, 128, 3, 3" offset="1266496" size="294912"/>
			<output>
				<port id="0" precision="FP16">
					<dim>128</dim>
					<dim>128</dim>
					<dim>3</dim>
					<dim>3</dim>
				</port>
			</output>
		</layer>
		<layer id="209" name="model/tfc3_3/sequential_8/tf_bottleneck_6/tf_conv_30/conv2d_30/Conv2D/ReadVariableOp" type="Convert" version="opset1">
			<data destination_type="f32"/>
			<rt_info>
				<attribute name="decompression" version="0"/>
				<attribute name="fused_names" version="0" value="model/tfc3_3/sequential_8/tf_bottleneck_6/tf_conv_30/conv2d_30/Conv2D/ReadVariableOp"/>
			</rt_info>
			<input>
				<port id="0" precision="FP16">
					<dim>128</dim>
					<dim>128</dim>
					<dim>3</dim>
					<dim>3</dim>
				</port>
			</input>
			<output>
				<port id="1" precision="FP32" names="model/tfc3_3/sequential_8/tf_bottleneck_6/tf_conv_30/conv2d_30/Conv2D/ReadVariableOp:0">
					<dim>128</dim>
					<dim>128</dim>
					<dim>3</dim>
					<dim>3</dim>
				</port>
			</output>
		</layer>
		<layer id="210" name="model/tfc3_3/sequential_8/tf_bottleneck_6/tf_conv_30/conv2d_30/Conv2D" type="Convolution" version="opset1">
			<data strides="1, 1" dilations="1, 1" pads_begin="0, 0" pads_end="0, 0" auto_pad="same_upper"/>
			<rt_info>
				<attribute name="fused_names" version="0" value="model/tfc3_3/sequential_8/tf_bottleneck_6/tf_conv_30/conv2d_30/Conv2D"/>
			</rt_info>
			<input>
				<port id="0" precision="FP32">
					<dim>1</dim>
					<dim>128</dim>
					<dim>16</dim>
					<dim>20</dim>
				</port>
				<port id="1" precision="FP32">
					<dim>128</dim>
					<dim>128</dim>
					<dim>3</dim>
					<dim>3</dim>
				</port>
			</input>
			<output>
				<port id="2" precision="FP32" names="model/tfc3_3/sequential_8/tf_bottleneck_6/tf_conv_30/conv2d_30/Conv2D:0">
					<dim>1</dim>
					<dim>128</dim>
					<dim>16</dim>
					<dim>20</dim>
				</port>
			</output>
		</layer>
		<layer id="211" name="model/tfc3_3/sequential_8/tf_bottleneck_6/tf_conv_30/conv2d_30/BiasAdd/ReadVariableOp_compressed" type="Const" version="opset1">
			<data element_type="f16" shape="1, 128, 1, 1" offset="1561408" size="256"/>
			<output>
				<port id="0" precision="FP16">
					<dim>1</dim>
					<dim>128</dim>
					<dim>1</dim>
					<dim>1</dim>
				</port>
			</output>
		</layer>
		<layer id="212" name="model/tfc3_3/sequential_8/tf_bottleneck_6/tf_conv_30/conv2d_30/BiasAdd/ReadVariableOp" type="Convert" version="opset1">
			<data destination_type="f32"/>
			<rt_info>
				<attribute name="decompression" version="0"/>
				<attribute name="fused_names" version="0" value="model/tfc3_3/sequential_8/tf_bottleneck_6/tf_conv_30/conv2d_30/BiasAdd/ReadVariableOp"/>
			</rt_info>
			<input>
				<port id="0" precision="FP16">
					<dim>1</dim>
					<dim>128</dim>
					<dim>1</dim>
					<dim>1</dim>
				</port>
			</input>
			<output>
				<port id="1" precision="FP32" names="model/tfc3_3/sequential_8/tf_bottleneck_6/tf_conv_30/conv2d_30/BiasAdd/ReadVariableOp:0">
					<dim>1</dim>
					<dim>128</dim>
					<dim>1</dim>
					<dim>1</dim>
				</port>
			</output>
		</layer>
		<layer id="213" name="model/tfc3_3/sequential_8/tf_bottleneck_6/tf_conv_30/conv2d_30/BiasAdd/Add" type="Add" version="opset1">
			<data auto_broadcast="numpy"/>
			<rt_info>
				<attribute name="fused_names" version="0" value="model/tfc3_3/sequential_8/tf_bottleneck_6/tf_conv_30/conv2d_30/BiasAdd/Add, model/tfc3_3/sequential_8/tf_bottleneck_6/tf_conv_30/mul"/>
			</rt_info>
			<input>
				<port id="0" precision="FP32">
					<dim>1</dim>
					<dim>128</dim>
					<dim>16</dim>
					<dim>20</dim>
				</port>
				<port id="1" precision="FP32">
					<dim>1</dim>
					<dim>128</dim>
					<dim>1</dim>
					<dim>1</dim>
				</port>
			</input>
			<output>
				<port id="2" precision="FP32" names="model/tfc3_3/sequential_8/tf_bottleneck_6/tf_conv_30/Identity:0,model/tfc3_3/sequential_8/tf_bottleneck_6/tf_conv_30/conv2d_30/BiasAdd:0,model/tfc3_3/sequential_8/tf_bottleneck_6/tf_conv_30/mul:0">
					<dim>1</dim>
					<dim>128</dim>
					<dim>16</dim>
					<dim>20</dim>
				</port>
			</output>
		</layer>
		<layer id="214" name="model/tfc3_3/sequential_8/tf_bottleneck_6/tf_conv_30/mul_1" type="Swish" version="opset4">
			<rt_info>
				<attribute name="fused_names" version="0" value="model/tfc3_3/sequential_8/tf_bottleneck_6/tf_conv_30/Sigmoid, model/tfc3_3/sequential_8/tf_bottleneck_6/tf_conv_30/mul_1"/>
			</rt_info>
			<input>
				<port id="0" precision="FP32">
					<dim>1</dim>
					<dim>128</dim>
					<dim>16</dim>
					<dim>20</dim>
				</port>
			</input>
			<output>
				<port id="1" precision="FP32" names="model/tfc3_3/sequential_8/tf_bottleneck_6/tf_conv_30/IdentityN:0,model/tfc3_3/sequential_8/tf_bottleneck_6/tf_conv_30/mul_1:0">
					<dim>1</dim>
					<dim>128</dim>
					<dim>16</dim>
					<dim>20</dim>
				</port>
			</output>
		</layer>
		<layer id="215" name="model/tfc3_3/sequential_8/tf_bottleneck_6/add" type="Add" version="opset1">
			<data auto_broadcast="numpy"/>
			<rt_info>
				<attribute name="fused_names" version="0" value="model/tfc3_3/sequential_8/tf_bottleneck_6/add"/>
			</rt_info>
			<input>
				<port id="0" precision="FP32">
					<dim>1</dim>
					<dim>128</dim>
					<dim>16</dim>
					<dim>20</dim>
				</port>
				<port id="1" precision="FP32">
					<dim>1</dim>
					<dim>128</dim>
					<dim>16</dim>
					<dim>20</dim>
				</port>
			</input>
			<output>
				<port id="2" precision="FP32" names="model/tfc3_3/sequential_8/tf_bottleneck_6/add:0">
					<dim>1</dim>
					<dim>128</dim>
					<dim>16</dim>
					<dim>20</dim>
				</port>
			</output>
		</layer>
		<layer id="216" name="model/tfc3_3/tf_conv_27/conv2d_27/Conv2D/ReadVariableOp_compressed" type="Const" version="opset1">
			<data element_type="f16" shape="128, 256, 1, 1" offset="1561664" size="65536"/>
			<output>
				<port id="0" precision="FP16">
					<dim>128</dim>
					<dim>256</dim>
					<dim>1</dim>
					<dim>1</dim>
				</port>
			</output>
		</layer>
		<layer id="217" name="model/tfc3_3/tf_conv_27/conv2d_27/Conv2D/ReadVariableOp" type="Convert" version="opset1">
			<data destination_type="f32"/>
			<rt_info>
				<attribute name="decompression" version="0"/>
				<attribute name="fused_names" version="0" value="model/tfc3_3/tf_conv_27/conv2d_27/Conv2D/ReadVariableOp"/>
			</rt_info>
			<input>
				<port id="0" precision="FP16">
					<dim>128</dim>
					<dim>256</dim>
					<dim>1</dim>
					<dim>1</dim>
				</port>
			</input>
			<output>
				<port id="1" precision="FP32" names="model/tfc3_3/tf_conv_27/conv2d_27/Conv2D/ReadVariableOp:0">
					<dim>128</dim>
					<dim>256</dim>
					<dim>1</dim>
					<dim>1</dim>
				</port>
			</output>
		</layer>
		<layer id="218" name="model/tfc3_3/tf_conv_27/conv2d_27/Conv2D" type="Convolution" version="opset1">
			<data strides="1, 1" dilations="1, 1" pads_begin="0, 0" pads_end="0, 0" auto_pad="same_upper"/>
			<rt_info>
				<attribute name="fused_names" version="0" value="model/tfc3_3/tf_conv_27/conv2d_27/Conv2D"/>
			</rt_info>
			<input>
				<port id="0" precision="FP32">
					<dim>1</dim>
					<dim>256</dim>
					<dim>16</dim>
					<dim>20</dim>
				</port>
				<port id="1" precision="FP32">
					<dim>128</dim>
					<dim>256</dim>
					<dim>1</dim>
					<dim>1</dim>
				</port>
			</input>
			<output>
				<port id="2" precision="FP32" names="model/tfc3_3/tf_conv_27/conv2d_27/Conv2D:0">
					<dim>1</dim>
					<dim>128</dim>
					<dim>16</dim>
					<dim>20</dim>
				</port>
			</output>
		</layer>
		<layer id="219" name="model/tfc3_3/tf_conv_27/conv2d_27/BiasAdd/ReadVariableOp_compressed" type="Const" version="opset1">
			<data element_type="f16" shape="1, 128, 1, 1" offset="1627200" size="256"/>
			<output>
				<port id="0" precision="FP16">
					<dim>1</dim>
					<dim>128</dim>
					<dim>1</dim>
					<dim>1</dim>
				</port>
			</output>
		</layer>
		<layer id="220" name="model/tfc3_3/tf_conv_27/conv2d_27/BiasAdd/ReadVariableOp" type="Convert" version="opset1">
			<data destination_type="f32"/>
			<rt_info>
				<attribute name="decompression" version="0"/>
				<attribute name="fused_names" version="0" value="model/tfc3_3/tf_conv_27/conv2d_27/BiasAdd/ReadVariableOp"/>
			</rt_info>
			<input>
				<port id="0" precision="FP16">
					<dim>1</dim>
					<dim>128</dim>
					<dim>1</dim>
					<dim>1</dim>
				</port>
			</input>
			<output>
				<port id="1" precision="FP32" names="model/tfc3_3/tf_conv_27/conv2d_27/BiasAdd/ReadVariableOp:0">
					<dim>1</dim>
					<dim>128</dim>
					<dim>1</dim>
					<dim>1</dim>
				</port>
			</output>
		</layer>
		<layer id="221" name="model/tfc3_3/tf_conv_27/conv2d_27/BiasAdd/Add" type="Add" version="opset1">
			<data auto_broadcast="numpy"/>
			<rt_info>
				<attribute name="fused_names" version="0" value="model/tfc3_3/tf_conv_27/conv2d_27/BiasAdd/Add, model/tfc3_3/tf_conv_27/mul"/>
			</rt_info>
			<input>
				<port id="0" precision="FP32">
					<dim>1</dim>
					<dim>128</dim>
					<dim>16</dim>
					<dim>20</dim>
				</port>
				<port id="1" precision="FP32">
					<dim>1</dim>
					<dim>128</dim>
					<dim>1</dim>
					<dim>1</dim>
				</port>
			</input>
			<output>
				<port id="2" precision="FP32" names="model/tfc3_3/tf_conv_27/Identity:0,model/tfc3_3/tf_conv_27/conv2d_27/BiasAdd:0,model/tfc3_3/tf_conv_27/mul:0">
					<dim>1</dim>
					<dim>128</dim>
					<dim>16</dim>
					<dim>20</dim>
				</port>
			</output>
		</layer>
		<layer id="222" name="model/tfc3_3/tf_conv_27/mul_1" type="Swish" version="opset4">
			<rt_info>
				<attribute name="fused_names" version="0" value="model/tfc3_3/tf_conv_27/Sigmoid, model/tfc3_3/tf_conv_27/mul_1"/>
			</rt_info>
			<input>
				<port id="0" precision="FP32">
					<dim>1</dim>
					<dim>128</dim>
					<dim>16</dim>
					<dim>20</dim>
				</port>
			</input>
			<output>
				<port id="1" precision="FP32" names="model/tfc3_3/tf_conv_27/IdentityN:0,model/tfc3_3/tf_conv_27/mul_1:0">
					<dim>1</dim>
					<dim>128</dim>
					<dim>16</dim>
					<dim>20</dim>
				</port>
			</output>
		</layer>
		<layer id="223" name="model/tfc3_3/concat" type="Concat" version="opset1">
			<data axis="1"/>
			<rt_info>
				<attribute name="fused_names" version="0" value="model/tfc3_3/concat"/>
			</rt_info>
			<input>
				<port id="0" precision="FP32">
					<dim>1</dim>
					<dim>128</dim>
					<dim>16</dim>
					<dim>20</dim>
				</port>
				<port id="1" precision="FP32">
					<dim>1</dim>
					<dim>128</dim>
					<dim>16</dim>
					<dim>20</dim>
				</port>
			</input>
			<output>
				<port id="2" precision="FP32" names="model/tfc3_3/concat:0">
					<dim>1</dim>
					<dim>256</dim>
					<dim>16</dim>
					<dim>20</dim>
				</port>
			</output>
		</layer>
		<layer id="224" name="model/tfc3_3/tf_conv_28/conv2d_28/Conv2D/ReadVariableOp_compressed" type="Const" version="opset1">
			<data element_type="f16" shape="256, 256, 1, 1" offset="1627456" size="131072"/>
			<output>
				<port id="0" precision="FP16">
					<dim>256</dim>
					<dim>256</dim>
					<dim>1</dim>
					<dim>1</dim>
				</port>
			</output>
		</layer>
		<layer id="225" name="model/tfc3_3/tf_conv_28/conv2d_28/Conv2D/ReadVariableOp" type="Convert" version="opset1">
			<data destination_type="f32"/>
			<rt_info>
				<attribute name="decompression" version="0"/>
				<attribute name="fused_names" version="0" value="model/tfc3_3/tf_conv_28/conv2d_28/Conv2D/ReadVariableOp"/>
			</rt_info>
			<input>
				<port id="0" precision="FP16">
					<dim>256</dim>
					<dim>256</dim>
					<dim>1</dim>
					<dim>1</dim>
				</port>
			</input>
			<output>
				<port id="1" precision="FP32" names="model/tfc3_3/tf_conv_28/conv2d_28/Conv2D/ReadVariableOp:0">
…
				</port>
			</output>
		</layer>
		<layer id="546" name="model/tf_detect/mul_17/Fused_Mul_" type="Add" version="opset1">
			<data auto_broadcast="numpy"/>
			<rt_info>
				<attribute name="fused_names" version="0" value="model/tf_detect/add_2, model/tf_detect/mul_17/Fused_Mul_"/>
			</rt_info>
			<input>
				<port id="0" precision="FP32">
					<dim>1</dim>
					<dim>2</dim>
					<dim>320</dim>
					<dim>3</dim>
				</port>
				<port id="1" precision="FP32">
					<dim>1</dim>
					<dim>2</dim>
					<dim>320</dim>
					<dim>1</dim>
				</port>
			</input>
			<output>
				<port id="2" precision="FP32" names="model/tf_detect/truediv_4:0">
					<dim>1</dim>
					<dim>2</dim>
					<dim>320</dim>
					<dim>3</dim>
				</port>
			</output>
		</layer>
		<layer id="547" name="model/tf_detect/pow_2/y_compressed" type="Const" version="opset1">
			<data element_type="f16" shape="1, 1, 1, 1" offset="2425066" size="2"/>
			<output>
				<port id="0" precision="FP16">
					<dim>1</dim>
					<dim>1</dim>
					<dim>1</dim>
					<dim>1</dim>
				</port>
			</output>
		</layer>
		<layer id="548" name="model/tf_detect/pow_2/y" type="Convert" version="opset1">
			<data destination_type="f32"/>
			<rt_info>
				<attribute name="decompression" version="0"/>
				<attribute name="fused_names" version="0" value="model/tf_detect/pow_2/y"/>
			</rt_info>
			<input>
				<port id="0" precision="FP16">
					<dim>1</dim>
					<dim>1</dim>
					<dim>1</dim>
					<dim>1</dim>
				</port>
			</input>
			<output>
				<port id="1" precision="FP32" names="model/tf_detect/pow_2/y:0">
					<dim>1</dim>
					<dim>1</dim>
					<dim>1</dim>
					<dim>1</dim>
				</port>
			</output>
		</layer>
		<layer id="549" name="model/tf_detect/pow_2" type="Power" version="opset1">
			<data auto_broadcast="numpy"/>
			<rt_info>
				<attribute name="fused_names" version="0" value="model/tf_detect/pow_2"/>
			</rt_info>
			<input>
				<port id="0" precision="FP32">
					<dim>1</dim>
					<dim>2</dim>
					<dim>320</dim>
					<dim>3</dim>
				</port>
				<port id="1" precision="FP32">
					<dim>1</dim>
					<dim>1</dim>
					<dim>1</dim>
					<dim>1</dim>
				</port>
			</input>
			<output>
				<port id="2" precision="FP32" names="model/tf_detect/pow_2:0">
					<dim>1</dim>
					<dim>2</dim>
					<dim>320</dim>
					<dim>3</dim>
				</port>
			</output>
		</layer>
		<layer id="550" name="Constant_2204_compressed" type="Const" version="opset1">
			<data element_type="f16" shape="1, 2, 1, 3" offset="3588856" size="12"/>
			<output>
				<port id="0" precision="FP16">
					<dim>1</dim>
					<dim>2</dim>
					<dim>1</dim>
					<dim>3</dim>
				</port>
			</output>
		</layer>
		<layer id="551" name="Constant_2204" type="Convert" version="opset1">
			<data destination_type="f32"/>
			<rt_info>
				<attribute name="decompression" version="0"/>
			</rt_info>
			<input>
				<port id="0" precision="FP16">
					<dim>1</dim>
					<dim>2</dim>
					<dim>1</dim>
					<dim>3</dim>
				</port>
			</input>
			<output>
				<port id="1" precision="FP32">
					<dim>1</dim>
					<dim>2</dim>
					<dim>1</dim>
					<dim>3</dim>
				</port>
			</output>
		</layer>
		<layer id="552" name="model/tf_detect/truediv_5" type="Multiply" version="opset1">
			<data auto_broadcast="numpy"/>
			<rt_info>
				<attribute name="fused_names" version="0" value="model/tf_detect/mul_18, model/tf_detect/truediv_5"/>
			</rt_info>
			<input>
				<port id="0" precision="FP32">
					<dim>1</dim>
					<dim>2</dim>
					<dim>320</dim>
					<dim>3</dim>
				</port>
				<port id="1" precision="FP32">
					<dim>1</dim>
					<dim>2</dim>
					<dim>1</dim>
					<dim>3</dim>
				</port>
			</input>
			<output>
				<port id="2" precision="FP32" names="model/tf_detect/truediv_5:0">
					<dim>1</dim>
					<dim>2</dim>
					<dim>320</dim>
					<dim>3</dim>
				</port>
			</output>
		</layer>
		<layer id="553" name="model/tf_detect/concat_2" type="Concat" version="opset1">
			<data axis="1"/>
			<rt_info>
				<attribute name="fused_names" version="0" value="model/tf_detect/concat_2"/>
			</rt_info>
			<input>
				<port id="0" precision="FP32">
					<dim>1</dim>
					<dim>2</dim>
					<dim>320</dim>
					<dim>3</dim>
				</port>
				<port id="1" precision="FP32">
					<dim>1</dim>
					<dim>2</dim>
					<dim>320</dim>
					<dim>3</dim>
				</port>
				<port id="2" precision="FP32">
					<dim>1</dim>
					<dim>17</dim>
					<dim>320</dim>
					<dim>3</dim>
				</port>
			</input>
			<output>
				<port id="3" precision="FP32">
					<dim>1</dim>
					<dim>21</dim>
					<dim>320</dim>
					<dim>3</dim>
				</port>
			</output>
		</layer>
		<layer id="554" name="model/tf_detect/concat_2/Transpose/value1288820364" type="Const" version="opset1">
			<data element_type="i64" shape="4" offset="2404494" size="32"/>
			<rt_info>
				<attribute name="fused_names" version="0" value="model/tf_detect/concat_2/Transpose/value1288820364"/>
			</rt_info>
			<output>
				<port id="0" precision="I64">
					<dim>4</dim>
				</port>
			</output>
		</layer>
		<layer id="555" name="model/tf_detect/concat_2/Transpose" type="Transpose" version="opset1">
			<rt_info>
				<attribute name="fused_names" version="0" value="model/tf_detect/concat_2/Transpose"/>
			</rt_info>
			<input>
				<port id="0" precision="FP32">
					<dim>1</dim>
					<dim>21</dim>
					<dim>320</dim>
					<dim>3</dim>
				</port>
				<port id="1" precision="I64">
					<dim>4</dim>
				</port>
			</input>
			<output>
				<port id="2" precision="FP32" names="model/tf_detect/concat_2:0">
					<dim>1</dim>
					<dim>320</dim>
					<dim>3</dim>
					<dim>21</dim>
				</port>
			</output>
		</layer>
		<layer id="556" name="model/tf_detect/Reshape_5/shape_1" type="Const" version="opset1">
			<data element_type="i64" shape="3" offset="3588868" size="24"/>
			<rt_info>
				<attribute name="fused_names" version="0" value="model/tf_detect/Reshape_5/shape_1"/>
			</rt_info>
			<output>
				<port id="0" precision="I64" names="model/tf_detect/Reshape_5/shape_1:0">
					<dim>3</dim>
				</port>
			</output>
		</layer>
		<layer id="557" name="model/tf_detect/Reshape_5" type="Reshape" version="opset1">
			<data special_zero="false"/>
			<rt_info>
				<attribute name="fused_names" version="0" value="model/tf_detect/Reshape_5"/>
			</rt_info>
			<input>
				<port id="0" precision="FP32">
					<dim>1</dim>
					<dim>320</dim>
					<dim>3</dim>
					<dim>21</dim>
				</port>
				<port id="1" precision="I64">
					<dim>3</dim>
				</port>
			</input>
			<output>
				<port id="2" precision="FP32" names="model/tf_detect/Reshape_5:0">
					<dim>1</dim>
					<dim>960</dim>
					<dim>21</dim>
				</port>
			</output>
		</layer>
		<layer id="558" name="model/tf_detect/concat_3" type="Concat" version="opset1">
			<data axis="1"/>
			<rt_info>
				<attribute name="fused_names" version="0" value="model/tf_detect/concat_3"/>
			</rt_info>
			<input>
				<port id="0" precision="FP32">
					<dim>1</dim>
					<dim>15360</dim>
					<dim>21</dim>
				</port>
				<port id="1" precision="FP32">
					<dim>1</dim>
					<dim>3840</dim>
					<dim>21</dim>
				</port>
				<port id="2" precision="FP32">
					<dim>1</dim>
					<dim>960</dim>
					<dim>21</dim>
				</port>
			</input>
			<output>
				<port id="3" precision="FP32" names="Identity:0,model/tf_detect/concat_3:0">
					<dim>1</dim>
					<dim>20160</dim>
					<dim>21</dim>
				</port>
			</output>
		</layer>
		<layer id="559" name="Identity:0" type="Result" version="opset1">
			<rt_info>
				<attribute name="fused_names" version="0" value="Identity:0"/>
			</rt_info>
			<input>
				<port id="0" precision="FP32">
					<dim>1</dim>
					<dim>20160</dim>
					<dim>21</dim>
				</port>
			</input>
		</layer>
	</layers>
	<edges>
		<edge from-layer="0" from-port="0" to-layer="2" to-port="0"/>
		<edge from-layer="1" from-port="0" to-layer="2" to-port="1"/>
		<edge from-layer="2" from-port="2" to-layer="5" to-port="0"/>
		<edge from-layer="3" from-port="0" to-layer="4" to-port="0"/>
		<edge from-layer="4" from-port="1" to-layer="5" to-port="1"/>
		<edge from-layer="5" from-port="2" to-layer="8" to-port="0"/>
		<edge from-layer="6" from-port="0" to-layer="7" to-port="0"/>
		<edge from-layer="7" from-port="1" to-layer="8" to-port="1"/>
		<edge from-layer="8" from-port="2" to-layer="9" to-port="0"/>
		<edge from-layer="9" from-port="1" to-layer="12" to-port="0"/>
		<edge from-layer="10" from-port="0" to-layer="11" to-port="0"/>
		<edge from-layer="11" from-port="1" to-layer="12" to-port="1"/>
		<edge from-layer="12" from-port="2" to-layer="15" to-port="0"/>
		<edge from-layer="13" from-port="0" to-layer="14" to-port="0"/>
		<edge from-layer="14" from-port="1" to-layer="15" to-port="1"/>
		<edge from-layer="15" from-port="2" to-layer="16" to-port="0"/>
		<edge from-layer="16" from-port="1" to-layer="41" to-port="0"/>
		<edge from-layer="16" from-port="1" to-layer="19" to-port="0"/>
		<edge from-layer="17" from-port="0" to-layer="18" to-port="0"/>
		<edge from-layer="18" from-port="1" to-layer="19" to-port="1"/>
		<edge from-layer="19" from-port="2" to-layer="22" to-port="0"/>
		<edge from-layer="20" from-port="0" to-layer="21" to-port="0"/>
		<edge from-layer="21" from-port="1" to-layer="22" to-port="1"/>
		<edge from-layer="22" from-port="2" to-layer="23" to-port="0"/>
		<edge from-layer="23" from-port="1" to-layer="26" to-port="0"/>
		<edge from-layer="23" from-port="1" to-layer="38" to-port="0"/>
		<edge from-layer="24" from-port="0" to-layer="25" to-port="0"/>
		<edge from-layer="25" from-port="1" to-layer="26" to-port="1"/>
		<edge from-layer="26" from-port="2" to-layer="29" to-port="0"/>
		<edge from-layer="27" from-port="0" to-layer="28" to-port="0"/>
		<edge from-layer="28" from-port="1" to-layer="29" to-port="1"/>
		<edge from-layer="29" from-port="2" to-layer="30" to-port="0"/>
		<edge from-layer="30" from-port="1" to-layer="33" to-port="0"/>
		<edge from-layer="31" from-port="0" to-layer="32" to-port="0"/>
		<edge from-layer="32" from-port="1" to-layer="33" to-port="1"/>
		<edge from-layer="33" from-port="2" to-layer="36" to-port="0"/>
		<edge from-layer="34" from-port="0" to-layer="35" to-port="0"/>
		<edge from-layer="35" from-port="1" to-layer="36" to-port="1"/>
		<edge from-layer="36" from-port="2" to-layer="37" to-port="0"/>
		<edge from-layer="37" from-port="1" to-layer="38" to-port="1"/>
		<edge from-layer="38" from-port="2" to-layer="46" to-port="0"/>
		<edge from-layer="39" from-port="0" to-layer="40" to-port="0"/>
		<edge from-layer="40" from-port="1" to-layer="41" to-port="1"/>
		<edge from-layer="41" from-port="2" to-layer="44" to-port="0"/>
		<edge from-layer="42" from-port="0" to-layer="43" to-port="0"/>
		<edge from-layer="43" from-port="1" to-layer="44" to-port="1"/>
		<edge from-layer="44" from-port="2" to-layer="45" to-port="0"/>
		<edge from-layer="45" from-port="1" to-layer="46" to-port="1"/>
		<edge from-layer="46" from-port="2" to-layer="49" to-port="0"/>
		<edge from-layer="47" from-port="0" to-layer="48" to-port="0"/>
		<edge from-layer="48" from-port="1" to-layer="49" to-port="1"/>
		<edge from-layer="49" from-port="2" to-layer="52" to-port="0"/>
		<edge from-layer="50" from-port="0" to-layer="51" to-port="0"/>
		<edge from-layer="51" from-port="1" to-layer="52" to-port="1"/>
		<edge from-layer="52" from-port="2" to-layer="53" to-port="0"/>
		<edge from-layer="53" from-port="1" to-layer="56" to-port="0"/>
		<edge from-layer="54" from-port="0" to-layer="55" to-port="0"/>
		<edge from-layer="55" from-port="1" to-layer="56" to-port="1"/>
		<edge from-layer="56" from-port="2" to-layer="59" to-port="0"/>
		<edge from-layer="57" from-port="0" to-layer="58" to-port="0"/>
		<edge from-layer="58" from-port="1" to-layer="59" to-port="1"/>
		<edge from-layer="59" from-port="2" to-layer="60" to-port="0"/>
		<edge from-layer="60" from-port="1" to-layer="63" to-port="0"/>
		<edge from-layer="60" from-port="1" to-layer="100" to-port="0"/>
		<edge from-layer="61" from-port="0" to-layer="62" to-port="0"/>
		<edge from-layer="62" from-port="1" to-layer="63" to-port="1"/>
		<edge from-layer="63" from-port="2" to-layer="66" to-port="0"/>
		<edge from-layer="64" from-port="0" to-layer="65" to-port="0"/>
		<edge from-layer="65" from-port="1" to-layer="66" to-port="1"/>
		<edge from-layer="66" from-port="2" to-layer="67" to-port="0"/>
		<edge from-layer="67" from-port="1" to-layer="70" to-port="0"/>
		<edge from-layer="67" from-port="1" to-layer="82" to-port="0"/>
		<edge from-layer="68" from-port="0" to-layer="69" to-port="0"/>
		<edge from-layer="69" from-port="1" to-layer="70" to-port="1"/>
		<edge from-layer="70" from-port="2" to-layer="73" to-port="0"/>
		<edge from-layer="71" from-port="0" to-layer="72" to-port="0"/>
		<edge from-layer="72" from-port="1" to-layer="73" to-port="1"/>
		<edge from-layer="73" from-port="2" to-layer="74" to-port="0"/>
		<edge from-layer="74" from-port="1" to-layer="77" to-port="0"/>
		<edge from-layer="75" from-port="0" to-layer="76" to-port="0"/>
		<edge from-layer="76" from-port="1" to-layer="77" to-port="1"/>
		<edge from-layer="77" from-port="2" to-layer="80" to-port="0"/>
		<edge from-layer="78" from-port="0" to-layer="79" to-port="0"/>
		<edge from-layer="79" from-port="1" to-layer="80" to-port="1"/>
		<edge from-layer="80" from-port="2" to-layer="81" to-port="0"/>
		<edge from-layer="81" from-port="1" to-layer="82" to-port="1"/>
		<edge from-layer="82" from-port="2" to-layer="85" to-port="0"/>
		<edge from-layer="82" from-port="2" to-layer="97" to-port="0"/>
		<edge from-layer="83" from-port="0" to-layer="84" to-port="0"/>
		<edge from-layer="84" from-port="1" to-layer="85" to-port="1"/>
		<edge from-layer="85" from-port="2" to-layer="88" to-port="0"/>
		<edge from-layer="86" from-port="0" to-layer="87" to-port="0"/>
		<edge from-layer="87" from-port="1" to-layer="88" to-port="1"/>
		<edge from-layer="88" from-port="2" to-layer="89" to-port="0"/>
		<edge from-layer="89" from-port="1" to-layer="92" to-port="0"/>
		<edge from-layer="90" from-port="0" to-layer="91" to-port="0"/>
		<edge from-layer="91" from-port="1" to-layer="92" to-port="1"/>
		<edge from-layer="92" from-port="2" to-layer="95" to-port="0"/>
		<edge from-layer="93" from-port="0" to-layer="94" to-port="0"/>
		<edge from-layer="94" from-port="1" to-layer="95" to-port="1"/>
		<edge from-layer="95" from-port="2" to-layer="96" to-port="0"/>
		<edge from-layer="96" from-port="1" to-layer="97" to-port="1"/>
		<edge from-layer="97" from-port="2" to-layer="105" to-port="0"/>
		<edge from-layer="98" from-port="0" to-layer="99" to-port="0"/>
		<edge from-layer="99" from-port="1" to-layer="100" to-port="1"/>
		<edge from-layer="100" from-port="2" to-layer="103" to-port="0"/>
		<edge from-layer="101" from-port="0" to-layer="102" to-port="0"/>
		<edge from-layer="102" from-port="1" to-layer="103" to-port="1"/>
		<edge from-layer="103" from-port="2" to-layer="104" to-port="0"/>
		<edge from-layer="104" from-port="1" to-layer="105" to-port="1"/>
		<edge from-layer="105" from-port="2" to-layer="108" to-port="0"/>
		<edge from-layer="106" from-port="0" to-layer="107" to-port="0"/>
		<edge from-layer="107" from-port="1" to-layer="108" to-port="1"/>
		<edge from-layer="108" from-port="2" to-layer="111" to-port="0"/>
		<edge from-layer="109" from-port="0" to-layer="110" to-port="0"/>
		<edge from-layer="110" from-port="1" to-layer="111" to-port="1"/>
		<edge from-layer="111" from-port="2" to-layer="112" to-port="0"/>
		<edge from-layer="112" from-port="1" to-layer="334" to-port="1"/>
		<edge from-layer="112" from-port="1" to-layer="115" to-port="0"/>
		<edge from-layer="112" from-port="1" to-layer="317" to-port="0"/>
		<edge from-layer="113" from-port="0" to-layer="114" to-port="0"/>
		<edge from-layer="114" from-port="1" to-layer="115" to-port="1"/>
		<edge from-layer="115" from-port="2" to-layer="118" to-port="0"/>
		<edge from-layer="116" from-port="0" to-layer="117" to-port="0"/>
		<edge from-layer="117" from-port="1" to-layer="118" to-port="1"/>
		<edge from-layer="118" from-port="2" to-layer="119" to-port="0"/>
		<edge from-layer="119" from-port="1" to-layer="122" to-port="0"/>
		<edge from-layer="119" from-port="1" to-layer="174" to-port="0"/>
		<edge from-layer="120" from-port="0" to-layer="121" to-port="0"/>
		<edge from-layer="121" from-port="1" to-layer="122" to-port="1"/>
		<edge from-layer="122" from-port="2" to-layer="125" to-port="0"/>
		<edge from-layer="123" from-port="0" to-layer="124" to-port="0"/>
		<edge from-layer="124" from-port="1" to-layer="125" to-port="1"/>
		<edge from-layer="125" from-port="2" to-layer="126" to-port="0"/>
		<edge from-layer="126" from-port="1" to-layer="141" to-port="0"/>
		<edge from-layer="126" from-port="1" to-layer="129" to-port="0"/>
		<edge from-layer="127" from-port="0" to-layer="128" to-port="0"/>
		<edge from-layer="128" from-port="1" to-layer="129" to-port="1"/>
		<edge from-layer="129" from-port="2" to-layer="132" to-port="0"/>
		<edge from-layer="130" from-port="0" to-layer="131" to-port="0"/>
		<edge from-layer="131" from-port="1" to-layer="132" to-port="1"/>
		<edge from-layer="132" from-port="2" to-layer="133" to-port="0"/>
		<edge from-layer="133" from-port="1" to-layer="136" to-port="0"/>
		<edge from-layer="134" from-port="0" to-layer="135" to-port="0"/>
		<edge from-layer="135" from-port="1" to-layer="136" to-port="1"/>
		<edge from-layer="136" from-port="2" to-layer="139" to-port="0"/>
		<edge from-layer="137" from-port="0" to-layer="138" to-port="0"/>
		<edge from-layer="138" from-port="1" to-layer="139" to-port="1"/>
		<edge from-layer="139" from-port="2" to-layer="140" to-port="0"/>
		<edge from-layer="140" from-port="1" to-layer="141" to-port="1"/>
		<edge from-layer="141" from-port="2" to-layer="144" to-port="0"/>
		<edge from-layer="141" from-port="2" to-layer="156" to-port="0"/>
		<edge from-layer="142" from-port="0" to-layer="143" to-port="0"/>
		<edge from-layer="143" from-port="1" to-layer="144" to-port="1"/>
		<edge from-layer="144" from-port="2" to-layer="147" to-port="0"/>
		<edge from-layer="145" from-port="0" to-layer="146" to-port="0"/>
		<edge from-layer="146" from-port="1" to-layer="147" to-port="1"/>
		<edge from-layer="147" from-port="2" to-layer="148" to-port="0"/>
		<edge from-layer="148" from-port="1" to-layer="151" to-port="0"/>
		<edge from-layer="149" from-port="0" to-layer="150" to-port="0"/>
		<edge from-layer="150" from-port="1" to-layer="151" to-port="1"/>
		<edge from-layer="151" from-port="2" to-layer="154" to-port="0"/>
		<edge from-layer="152" from-port="0" to-layer="153" to-port="0"/>
		<edge from-layer="153" from-port="1" to-layer="154" to-port="1"/>
		<edge from-layer="154" from-port="2" to-layer="155" to-port="0"/>
		<edge from-layer="155" from-port="1" to-layer="156" to-port="1"/>
		<edge from-layer="156" from-port="2" to-layer="159" to-port="0"/>
		<edge from-layer="156" from-port="2" to-layer="171" to-port="0"/>
		<edge from-layer="157" from-port="0" to-layer="158" to-port="0"/>
		<edge from-layer="158" from-port="1" to-layer="159" to-port="1"/>
		<edge from-layer="159" from-port="2" to-layer="162" to-port="0"/>
		<edge from-layer="160" from-port="0" to-layer="161" to-port="0"/>
		<edge from-layer="161" from-port="1" to-layer="162" to-port="1"/>
		<edge from-layer="162" from-port="2" to-layer="163" to-port="0"/>
		<edge from-layer="163" from-port="1" to-layer="166" to-port="0"/>
		<edge from-layer="164" from-port="0" to-layer="165" to-port="0"/>
		<edge from-layer="165" from-port="1" to-layer="166" to-port="1"/>
		<edge from-layer="166" from-port="2" to-layer="169" to-port="0"/>
		<edge from-layer="167" from-port="0" to-layer="168" to-port="0"/>
		<edge from-layer="168" from-port="1" to-layer="169" to-port="1"/>
		<edge from-layer="169" from-port="2" to-layer="170" to-port="0"/>
		<edge from-layer="170" from-port="1" to-layer="171" to-port="1"/>
		<edge from-layer="171" from-port="2" to-layer="179" to-port="0"/>
		<edge from-layer="172" from-port="0" to-layer="173" to-port="0"/>
		<edge from-layer="173" from-port="1" to-layer="174" to-port="1"/>
		<edge from-layer="174" from-port="2" to-layer="177" to-port="0"/>
		<edge from-layer="175" from-port="0" to-layer="176" to-port="0"/>
		<edge from-layer="176" from-port="1" to-layer="177" to-port="1"/>
		<edge from-layer="177" from-port="2" to-layer="178" to-port="0"/>
		<edge from-layer="178" from-port="1" to-layer="179" to-port="1"/>
		<edge from-layer="179" from-port="2" to-layer="182" to-port="0"/>
		<edge from-layer="180" from-port="0" to-layer="181" to-port="0"/>
		<edge from-layer="181" from-port="1" to-layer="182" to-port="1"/>
		<edge from-layer="182" from-port="2" to-layer="185" to-port="0"/>
		<edge from-layer="183" from-port="0" to-layer="184" to-port="0"/>
		<edge from-layer="184" from-port="1" to-layer="185" to-port="1"/>
		<edge from-layer="185" from-port="2" to-layer="186" to-port="0"/>
		<edge from-layer="186" from-port="1" to-layer="273" to-port="1"/>
		<edge from-layer="186" from-port="1" to-layer="256" to-port="0"/>
		<edge from-layer="186" from-port="1" to-layer="189" to-port="0"/>
		<edge from-layer="187" from-port="0" to-layer="188" to-port="0"/>
		<edge from-layer="188" from-port="1" to-layer="189" to-port="1"/>
		<edge from-layer="189" from-port="2" to-layer="192" to-port="0"/>
		<edge from-layer="190" from-port="0" to-layer="191" to-port="0"/>
		<edge from-layer="191" from-port="1" to-layer="192" to-port="1"/>
		<edge from-layer="192" from-port="2" to-layer="193" to-port="0"/>
		<edge from-layer="193" from-port="1" to-layer="196" to-port="0"/>
		<edge from-layer="193" from-port="1" to-layer="218" to-port="0"/>
		<edge from-layer="194" from-port="0" to-layer="195" to-port="0"/>
		<edge from-layer="195" from-port="1" to-layer="196" to-port="1"/>
		<edge from-layer="196" from-port="2" to-layer="199" to-port="0"/>
		<edge from-layer="197" from-port="0" to-layer="198" to-port="0"/>
		<edge from-layer="198" from-port="1" to-layer="199" to-port="1"/>
		<edge from-layer="199" from-port="2" to-layer="200" to-port="0"/>
		<edge from-layer="200" from-port="1" to-layer="215" to-port="0"/>
		<edge from-layer="200" from-port="1" to-layer="203" to-port="0"/>
		<edge from-layer="201" from-port="0" to-layer="202" to-port="0"/>
		<edge from-layer="202" from-port="1" to-layer="203" to-port="1"/>
		<edge from-layer="203" from-port="2" to-layer="206" to-port="0"/>
		<edge from-layer="204" from-port="0" to-layer="205" to-port="0"/>
		<edge from-layer="205" from-port="1" to-layer="206" to-port="1"/>
		<edge from-layer="206" from-port="2" to-layer="207" to-port="0"/>
		<edge from-layer="207" from-port="1" to-layer="210" to-port="0"/>
		<edge from-layer="208" from-port="0" to-layer="209" to-port="0"/>
		<edge from-layer="209" from-port="1" to-layer="210" to-port="1"/>
		<edge from-layer="210" from-port="2" to-layer="213" to-port="0"/>
		<edge from-layer="211" from-port="0" to-layer="212" to-port="0"/>
		<edge from-layer="212" from-port="1" to-layer="213" to-port="1"/>
		<edge from-layer="213" from-port="2" to-layer="214" to-port="0"/>
		<edge from-layer="214" from-port="1" to-layer="215" to-port="1"/>
		<edge from-layer="215" from-port="2" to-layer="223" to-port="0"/>
		<edge from-layer="216" from-port="0" to-layer="217" to-port="0"/>
		<edge from-layer="217" from-port="1" to-layer="218" to-port="1"/>
		<edge from-layer="218" from-port="2" to-layer="221" to-port="0"/>
		<edge from-layer="219" from-port="0" to-layer="220" to-port="0"/>
		<edge from-layer="220" from-port="1" to-layer="221" to-port="1"/>
		<edge from-layer="221" from-port="2" to-layer="222" to-port="0"/>
		<edge from-layer="222" from-port="1" to-layer="223" to-port="1"/>
		<edge from-layer="223" from-port="2" to-layer="226" to-port="0"/>
		<edge from-layer="224" from-port="0" to-layer="225" to-port="0"/>
		<edge from-layer="225" from-port="1" to-layer="226" to-port="1"/>
		<edge from-layer="226" from-port="2" to-layer="229" to-port="0"/>
		<edge from-layer="227" from-port="0" to-layer="228" to-port="0"/>
		<edge from-layer="228" from-port="1" to-layer="229" to-port="1"/>
		<edge from-layer="229" from-port="2" to-layer="230" to-port="0"/>
		<edge from-layer="230" from-port="1" to-layer="233" to-port="0"/>
		<edge from-layer="231" from-port="0" to-layer="232" to-port="0"/>
		<edge from-layer="232" from-port="1" to-layer="233" to-port="1"/>
		<edge from-layer="233" from-port="2" to-layer="236" to-port="0"/>
		<edge from-layer="234" from-port="0" to-layer="235" to-port="0"/>
		<edge from-layer="235" from-port="1" to-layer="236" to-port="1"/>
		<edge from-layer="236" from-port="2" to-layer="237" to-port="0"/>
		<edge from-layer="237" from-port="1" to-layer="238" to-port="0"/>
		<edge from-layer="237" from-port="1" to-layer="241" to-port="0"/>
		<edge from-layer="238" from-port="1" to-layer="239" to-port="0"/>
		<edge from-layer="238" from-port="1" to-layer="241" to-port="1"/>
		<edge from-layer="239" from-port="1" to-layer="240" to-port="0"/>
		<edge from-layer="239" from-port="1" to-layer="241" to-port="2"/>
		<edge from-layer="240" from-port="1" to-layer="241" to-port="3"/>
		<edge from-layer="241" from-port="4" to-layer="244" to-port="0"/>
		<edge from-layer="242" from-port="0" to-layer="243" to-port="0"/>
		<edge from-layer="243" from-port="1" to-layer="244" to-port="1"/>
		<edge from-layer="244" from-port="2" to-layer="247" to-port="0"/>
		<edge from-layer="245" from-port="0" to-layer="246" to-port="0"/>
		<edge from-layer="246" from-port="1" to-layer="247" to-port="1"/>
		<edge from-layer="247" from-port="2" to-layer="248" to-port="0"/>
		<edge from-layer="248" from-port="1" to-layer="251" to-port="0"/>
		<edge from-layer="249" from-port="0" to-layer="250" to-port="0"/>
		<edge from-layer="250" from-port="1" to-layer="251" to-port="1"/>
		<edge from-layer="251" from-port="2" to-layer="254" to-port="0"/>
		<edge from-layer="252" from-port="0" to-layer="253" to-port="0"/>
		<edge from-layer="253" from-port="1" to-layer="254" to-port="1"/>
		<edge from-layer="254" from-port="2" to-layer="255" to-port="0"/>
		<edge from-layer="255" from-port="1" to-layer="488" to-port="1"/>
		<edge from-layer="255" from-port="1" to-layer="261" to-port="0"/>
		<edge from-layer="255" from-port="1" to-layer="272" to-port="0"/>
		<edge from-layer="256" from-port="1" to-layer="259" to-port="0"/>
		<edge from-layer="257" from-port="0" to-layer="259" to-port="1"/>
		<edge from-layer="258" from-port="0" to-layer="259" to-port="2"/>
		<edge from-layer="259" from-port="3" to-layer="272" to-port="1"/>
		<edge from-layer="260" from-port="0" to-layer="270" to-port="0"/>
		<edge from-layer="261" from-port="1" to-layer="264" to-port="0"/>
		<edge from-layer="262" from-port="0" to-layer="264" to-port="1"/>
		<edge from-layer="263" from-port="0" to-layer="264" to-port="2"/>
		<edge from-layer="264" from-port="3" to-layer="268" to-port="0"/>
		<edge from-layer="265" from-port="0" to-layer="268" to-port="1"/>
		<edge from-layer="266" from-port="0" to-layer="268" to-port="2"/>
		<edge from-layer="267" from-port="0" to-layer="268" to-port="3"/>
		<edge from-layer="268" from-port="4" to-layer="269" to-port="0"/>
		<edge from-layer="269" from-port="1" to-layer="270" to-port="1"/>
		<edge from-layer="270" from-port="2" to-layer="272" to-port="2"/>
		<edge from-layer="271" from-port="0" to-layer="272" to-port="3"/>
		<edge from-layer="272" from-port="4" to-layer="273" to-port="0"/>
		<edge from-layer="273" from-port="2" to-layer="276" to-port="0"/>
		<edge from-layer="273" from-port="2" to-layer="297" to-port="0"/>
		<edge from-layer="274" from-port="0" to-layer="275" to-port="0"/>
		<edge from-layer="275" from-port="1" to-layer="276" to-port="1"/>
		<edge from-layer="276" from-port="2" to-layer="279" to-port="0"/>
		<edge from-layer="277" from-port="0" to-layer="278" to-port="0"/>
		<edge from-layer="278" from-port="1" to-layer="279" to-port="1"/>
		<edge from-layer="279" from-port="2" to-layer="280" to-port="0"/>
		<edge from-layer="280" from-port="1" to-layer="283" to-port="0"/>
		<edge from-layer="281" from-port="0" to-layer="282" to-port="0"/>
		<edge from-layer="282" from-port="1" to-layer="283" to-port="1"/>
		<edge from-layer="283" from-port="2" to-layer="286" to-port="0"/>
		<edge from-layer="284" from-port="0" to-layer="285" to-port="0"/>
		<edge from-layer="285" from-port="1" to-layer="286" to-port="1"/>
		<edge from-layer="286" from-port="2" to-layer="287" to-port="0"/>
		<edge from-layer="287" from-port="1" to-layer="290" to-port="0"/>
		<edge from-layer="288" from-port="0" to-layer="289" to-port="0"/>
		<edge from-layer="289" from-port="1" to-layer="290" to-port="1"/>
		<edge from-layer="290" from-port="2" to-layer="293" to-port="0"/>
		<edge from-layer="291" from-port="0" to-layer="292" to-port="0"/>
		<edge from-layer="292" from-port="1" to-layer="293" to-port="1"/>
		<edge from-layer="293" from-port="2" to-layer="294" to-port="0"/>
		<edge from-layer="294" from-port="1" to-layer="302" to-port="0"/>
		<edge from-layer="295" from-port="0" to-layer="296" to-port="0"/>
		<edge from-layer="296" from-port="1" to-layer="297" to-port="1"/>
		<edge from-layer="297" from-port="2" to-layer="300" to-port="0"/>
		<edge from-layer="298" from-port="0" to-layer="299" to-port="0"/>
		<edge from-layer="299" from-port="1" to-layer="300" to-port="1"/>
		<edge from-layer="300" from-port="2" to-layer="301" to-port="0"/>
		<edge from-layer="301" from-port="1" to-layer="302" to-port="1"/>
		<edge from-layer="302" from-port="2" to-layer="305" to-port="0"/>
		<edge from-layer="303" from-port="0" to-layer="304" to-port="0"/>
		<edge from-layer="304" from-port="1" to-layer="305" to-port="1"/>
		<edge from-layer="305" from-port="2" to-layer="308" to-port="0"/>
		<edge from-layer="306" from-port="0" to-layer="307" to-port="0"/>
		<edge from-layer="307" from-port="1" to-layer="308" to-port="1"/>
		<edge from-layer="308" from-port="2" to-layer="309" to-port="0"/>
		<edge from-layer="309" from-port="1" to-layer="312" to-port="0"/>
		<edge from-layer="310" from-port="0" to-layer="311" to-port="0"/>
		<edge from-layer="311" from-port="1" to-layer="312" to-port="1"/>
		<edge from-layer="312" from-port="2" to-layer="315" to-port="0"/>
		<edge from-layer="313" from-port="0" to-layer="314" to-port="0"/>
		<edge from-layer="314" from-port="1" to-layer="315" to-port="1"/>
		<edge from-layer="315" from-port="2" to-layer="316" to-port="0"/>
		<edge from-layer="316" from-port="1" to-layer="411" to-port="1"/>
		<edge from-layer="316" from-port="1" to-layer="333" to-port="0"/>
		<edge from-layer="316" from-port="1" to-layer="322" to-port="0"/>
		<edge from-layer="317" from-port="1" to-layer="320" to-port="0"/>
		<edge from-layer="318" from-port="0" to-layer="320" to-port="1"/>
		<edge from-layer="319" from-port="0" to-layer="320" to-port="2"/>
		<edge from-layer="320" from-port="3" to-layer="333" to-port="1"/>
		<edge from-layer="321" from-port="0" to-layer="331" to-port="0"/>
		<edge from-layer="322" from-port="1" to-layer="325" to-port="0"/>
		<edge from-layer="323" from-port="0" to-layer="325" to-port="1"/>
		<edge from-layer="324" from-port="0" to-layer="325" to-port="2"/>
		<edge from-layer="325" from-port="3" to-layer="329" to-port="0"/>
		<edge from-layer="326" from-port="0" to-layer="329" to-port="1"/>
		<edge from-layer="327" from-port="0" to-layer="329" to-port="2"/>
		<edge from-layer="328" from-port="0" to-layer="329" to-port="3"/>
		<edge from-layer="329" from-port="4" to-layer="330" to-port="0"/>
		<edge from-layer="330" from-port="1" to-layer="331" to-port="1"/>
		<edge from-layer="331" from-port="2" to-layer="333" to-port="2"/>
		<edge from-layer="332" from-port="0" to-layer="333" to-port="3"/>
		<edge from-layer="333" from-port="4" to-layer="334" to-port="0"/>
		<edge from-layer="334" from-port="2" to-layer="337" to-port="0"/>
		<edge from-layer="334" from-port="2" to-layer="358" to-port="0"/>
		<edge from-layer="335" from-port="0" to-layer="336" to-port="0"/>
		<edge from-layer="336" from-port="1" to-layer="337" to-port="1"/>
		<edge from-layer="337" from-port="2" to-layer="340" to-port="0"/>
		<edge from-layer="338" from-port="0" to-layer="339" to-port="0"/>
		<edge from-layer="339" from-port="1" to-layer="340" to-port="1"/>
		<edge from-layer="340" from-port="2" to-layer="341" to-port="0"/>
		<edge from-layer="341" from-port="1" to-layer="344" to-port="0"/>
		<edge from-layer="342" from-port="0" to-layer="343" to-port="0"/>
		<edge from-layer="343" from-port="1" to-layer="344" to-port="1"/>
		<edge from-layer="344" from-port="2" to-layer="347" to-port="0"/>
		<edge from-layer="345" from-port="0" to-layer="346" to-port="0"/>
		<edge from-layer="346" from-port="1" to-layer="347" to-port="1"/>
		<edge from-layer="347" from-port="2" to-layer="348" to-port="0"/>
		<edge from-layer="348" from-port="1" to-layer="351" to-port="0"/>
		<edge from-layer="349" from-port="0" to-layer="350" to-port="0"/>
		<edge from-layer="350" from-port="1" to-layer="351" to-port="1"/>
		<edge from-layer="351" from-port="2" to-layer="354" to-port="0"/>
		<edge from-layer="352" from-port="0" to-layer="353" to-port="0"/>
		<edge from-layer="353" from-port="1" to-layer="354" to-port="1"/>
		<edge from-layer="354" from-port="2" to-layer="355" to-port="0"/>
		<edge from-layer="355" from-port="1" to-layer="363" to-port="0"/>
		<edge from-layer="356" from-port="0" to-layer="357" to-port="0"/>
		<edge from-layer="357" from-port="1" to-layer="358" to-port="1"/>
		<edge from-layer="358" from-port="2" to-layer="361" to-port="0"/>
		<edge from-layer="359" from-port="0" to-layer="360" to-port="0"/>
		<edge from-layer="360" from-port="1" to-layer="361" to-port="1"/>
		<edge from-layer="361" from-port="2" to-layer="362" to-port="0"/>
		<edge from-layer="362" from-port="1" to-layer="363" to-port="1"/>
		<edge from-layer="363" from-port="2" to-layer="366" to-port="0"/>
		<edge from-layer="364" from-port="0" to-layer="365" to-port="0"/>
		<edge from-layer="365" from-port="1" to-layer="366" to-port="1"/>
		<edge from-layer="366" from-port="2" to-layer="369" to-port="0"/>
		<edge from-layer="367" from-port="0" to-layer="368" to-port="0"/>
		<edge from-layer="368" from-port="1" to-layer="369" to-port="1"/>
		<edge from-layer="369" from-port="2" to-layer="370" to-port="0"/>
		<edge from-layer="370" from-port="1" to-layer="373" to-port="0"/>
		<edge from-layer="370" from-port="1" to-layer="406" to-port="0"/>
		<edge from-layer="371" from-port="0" to-layer="372" to-port="0"/>
		<edge from-layer="372" from-port="1" to-layer="373" to-port="1"/>
		<edge from-layer="373" from-port="2" to-layer="376" to-port="0"/>
		<edge from-layer="374" from-port="0" to-layer="375" to-port="0"/>
		<edge from-layer="375" from-port="1" to-layer="376" to-port="1"/>
		<edge from-layer="376" from-port="2" to-layer="378" to-port="0"/>
		<edge from-layer="377" from-port="0" to-layer="378" to-port="1"/>
		<edge from-layer="378" from-port="2" to-layer="380" to-port="0"/>
		<edge from-layer="379" from-port="0" to-layer="380" to-port="1"/>
		<edge from-layer="380" from-port="2" to-layer="382" to-port="0"/>
		<edge from-layer="381" from-port="0" to-layer="382" to-port="1"/>
		<edge from-layer="382" from-port="2" to-layer="383" to-port="0"/>
		<edge from-layer="383" from-port="1" to-layer="386" to-port="0"/>
		<edge from-layer="384" from-port="0" to-layer="386" to-port="1"/>
		<edge from-layer="385" from-port="0" to-layer="386" to-port="2"/>
		<edge from-layer="386" from-port="3" to-layer="389" to-port="0"/>
		<edge from-layer="386" from-port="5" to-layer="399" to-port="2"/>
		<edge from-layer="386" from-port="4" to-layer="395" to-port="0"/>
		<edge from-layer="387" from-port="0" to-layer="388" to-port="0"/>
		<edge from-layer="388" from-port="1" to-layer="389" to-port="1"/>
		<edge from-layer="389" from-port="2" to-layer="392" to-port="0"/>
		<edge from-layer="390" from-port="0" to-layer="391" to-port="0"/>
		<edge from-layer="391" from-port="1" to-layer="392" to-port="1"/>
		<edge from-layer="392" from-port="2" to-layer="399" to-port="0"/>
		<edge from-layer="393" from-port="0" to-layer="394" to-port="0"/>
		<edge from-layer="394" from-port="1" to-layer="395" to-port="1"/>
		<edge from-layer="395" from-port="2" to-layer="398" to-port="0"/>
		<edge from-layer="396" from-port="0" to-layer="397" to-port="0"/>
		<edge from-layer="397" from-port="1" to-layer="398" to-port="1"/>
		<edge from-layer="398" from-port="2" to-layer="399" to-port="1"/>
		<edge from-layer="399" from-port="3" to-layer="401" to-port="0"/>
		<edge from-layer="400" from-port="0" to-layer="401" to-port="1"/>
		<edge from-layer="401" from-port="2" to-layer="403" to-port="0"/>
		<edge from-layer="402" from-port="0" to-layer="403" to-port="1"/>
		<edge from-layer="403" from-port="2" to-layer="558" to-port="0"/>
		<edge from-layer="404" from-port="0" to-layer="405" to-port="0"/>
		<edge from-layer="405" from-port="1" to-layer="406" to-port="1"/>
		<edge from-layer="406" from-port="2" to-layer="409" to-port="0"/>
		<edge from-layer="407" from-port="0" to-layer="408" to-port="0"/>
		<edge from-layer="408" from-port="1" to-layer="409" to-port="1"/>
		<edge from-layer="409" from-port="2" to-layer="410" to-port="0"/>
		<edge from-layer="410" from-port="1" to-layer="411" to-port="0"/>
		<edge from-layer="411" from-port="2" to-layer="435" to-port="0"/>
		<edge from-layer="411" from-port="2" to-layer="414" to-port="0"/>
		<edge from-layer="412" from-port="0" to-layer="413" to-port="0"/>
		<edge from-layer="413" from-port="1" to-layer="414" to-port="1"/>
		<edge from-layer="414" from-port="2" to-layer="417" to-port="0"/>
		<edge from-layer="415" from-port="0" to-layer="416" to-port="0"/>
		<edge from-layer="416" from-port="1" to-layer="417" to-port="1"/>
		<edge from-layer="417" from-port="2" to-layer="418" to-port="0"/>
		<edge from-layer="418" from-port="1" to-layer="421" to-port="0"/>
		<edge from-layer="419" from-port="0" to-layer="420" to-port="0"/>
		<edge from-layer="420" from-port="1" to-layer="421" to-port="1"/>
		<edge from-layer="421" from-port="2" to-layer="424" to-port="0"/>
		<edge from-layer="422" from-port="0" to-layer="423" to-port="0"/>
		<edge from-layer="423" from-port="1" to-layer="424" to-port="1"/>
		<edge from-layer="424" from-port="2" to-layer="425" to-port="0"/>
		<edge from-layer="425" from-port="1" to-layer="428" to-port="0"/>
		<edge from-layer="426" from-port="0" to-layer="427" to-port="0"/>
		<edge from-layer="427" from-port="1" to-layer="428" to-port="1"/>
		<edge from-layer="428" from-port="2" to-layer="431" to-port="0"/>
		<edge from-layer="429" from-port="0" to-layer="430" to-port="0"/>
		<edge from-layer="430" from-port="1" to-layer="431" to-port="1"/>
		<edge from-layer="431" from-port="2" to-layer="432" to-port="0"/>
		<edge from-layer="432" from-port="1" to-layer="440" to-port="0"/>
		<edge from-layer="433" from-port="0" to-layer="434" to-port="0"/>
		<edge from-layer="434" from-port="1" to-layer="435" to-port="1"/>
		<edge from-layer="435" from-port="2" to-layer="438" to-port="0"/>
		<edge from-layer="436" from-port="0" to-layer="437" to-port="0"/>
		<edge from-layer="437" from-port="1" to-layer="438" to-port="1"/>
		<edge from-layer="438" from-port="2" to-layer="439" to-port="0"/>
		<edge from-layer="439" from-port="1" to-layer="440" to-port="1"/>
		<edge from-layer="440" from-port="2" to-layer="443" to-port="0"/>
		<edge from-layer="441" from-port="0" to-layer="442" to-port="0"/>
		<edge from-layer="442" from-port="1" to-layer="443" to-port="1"/>
		<edge from-layer="443" from-port="2" to-layer="446" to-port="0"/>
		<edge from-layer="444" from-port="0" to-layer="445" to-port="0"/>
		<edge from-layer="445" from-port="1" to-layer="446" to-port="1"/>
		<edge from-layer="446" from-port="2" to-layer="447" to-port="0"/>
		<edge from-layer="447" from-port="1" to-layer="450" to-port="0"/>
		<edge from-layer="447" from-port="1" to-layer="483" to-port="0"/>
		<edge from-layer="448" from-port="0" to-layer="449" to-port="0"/>
		<edge from-layer="449" from-port="1" to-layer="450" to-port="1"/>
		<edge from-layer="450" from-port="2" to-layer="453" to-port="0"/>
		<edge from-layer="451" from-port="0" to-layer="452" to-port="0"/>
		<edge from-layer="452" from-port="1" to-layer="453" to-port="1"/>
		<edge from-layer="453" from-port="2" to-layer="455" to-port="0"/>
		<edge from-layer="454" from-port="0" to-layer="455" to-port="1"/>
		<edge from-layer="455" from-port="2" to-layer="457" to-port="0"/>
		<edge from-layer="456" from-port="0" to-layer="457" to-port="1"/>
		<edge from-layer="457" from-port="2" to-layer="459" to-port="0"/>
		<edge from-layer="458" from-port="0" to-layer="459" to-port="1"/>
		<edge from-layer="459" from-port="2" to-layer="460" to-port="0"/>
		<edge from-layer="460" from-port="1" to-layer="463" to-port="0"/>
		<edge from-layer="461" from-port="0" to-layer="463" to-port="1"/>
		<edge from-layer="462" from-port="0" to-layer="463" to-port="2"/>
		<edge from-layer="463" from-port="3" to-layer="466" to-port="0"/>
		<edge from-layer="463" from-port="4" to-layer="472" to-port="0"/>
		<edge from-layer="463" from-port="5" to-layer="476" to-port="2"/>
		<edge from-layer="464" from-port="0" to-layer="465" to-port="0"/>
		<edge from-layer="465" from-port="1" to-layer="466" to-port="1"/>
		<edge from-layer="466" from-port="2" to-layer="469" to-port="0"/>
		<edge from-layer="467" from-port="0" to-layer="468" to-port="0"/>
		<edge from-layer="468" from-port="1" to-layer="469" to-port="1"/>
		<edge from-layer="469" from-port="2" to-layer="476" to-port="0"/>
		<edge from-layer="470" from-port="0" to-layer="471" to-port="0"/>
		<edge from-layer="471" from-port="1" to-layer="472" to-port="1"/>
		<edge from-layer="472" from-port="2" to-layer="475" to-port="0"/>
		<edge from-layer="473" from-port="0" to-layer="474" to-port="0"/>
		<edge from-layer="474" from-port="1" to-layer="475" to-port="1"/>
		<edge from-layer="475" from-port="2" to-layer="476" to-port="1"/>
		<edge from-layer="476" from-port="3" to-layer="478" to-port="0"/>
		<edge from-layer="477" from-port="0" to-layer="478" to-port="1"/>
		<edge from-layer="478" from-port="2" to-layer="480" to-port="0"/>
		<edge from-layer="479" from-port="0" to-layer="480" to-port="1"/>
		<edge from-layer="480" from-port="2" to-layer="558" to-port="1"/>
		<edge from-layer="481" from-port="0" to-layer="482" to-port="0"/>
		<edge from-layer="482" from-port="1" to-layer="483" to-port="1"/>
		<edge from-layer="483" from-port="2" to-layer="486" to-port="0"/>
		<edge from-layer="484" from-port="0" to-layer="485" to-port="0"/>
		<edge from-layer="485" from-port="1" to-layer="486" to-port="1"/>
		<edge from-layer="486" from-port="2" to-layer="487" to-port="0"/>
		<edge from-layer="487" from-port="1" to-layer="488" to-port="0"/>
		<edge from-layer="488" from-port="2" to-layer="491" to-port="0"/>
		<edge from-layer="488" from-port="2" to-layer="512" to-port="0"/>
		<edge from-layer="489" from-port="0" to-layer="490" to-port="0"/>
		<edge from-layer="490" from-port="1" to-layer="491" to-port="1"/>
		<edge from-layer="491" from-port="2" to-layer="494" to-port="0"/>
		<edge from-layer="492" from-port="0" to-layer="493" to-port="0"/>
		<edge from-layer="493" from-port="1" to-layer="494" to-port="1"/>
		<edge from-layer="494" from-port="2" to-layer="495" to-port="0"/>
		<edge from-layer="495" from-port="1" to-layer="498" to-port="0"/>
		<edge from-layer="496" from-port="0" to-layer="497" to-port="0"/>
		<edge from-layer="497" from-port="1" to-layer="498" to-port="1"/>
		<edge from-layer="498" from-port="2" to-layer="501" to-port="0"/>
		<edge from-layer="499" from-port="0" to-layer="500" to-port="0"/>
		<edge from-layer="500" from-port="1" to-layer="501" to-port="1"/>
		<edge from-layer="501" from-port="2" to-layer="502" to-port="0"/>
		<edge from-layer="502" from-port="1" to-layer="505" to-port="0"/>
		<edge from-layer="503" from-port="0" to-layer="504" to-port="0"/>
		<edge from-layer="504" from-port="1" to-layer="505" to-port="1"/>
		<edge from-layer="505" from-port="2" to-layer="508" to-port="0"/>
		<edge from-layer="506" from-port="0" to-layer="507" to-port="0"/>
		<edge from-layer="507" from-port="1" to-layer="508" to-port="1"/>
		<edge from-layer="508" from-port="2" to-layer="509" to-port="0"/>
		<edge from-layer="509" from-port="1" to-layer="517" to-port="0"/>
		<edge from-layer="510" from-port="0" to-layer="511" to-port="0"/>
		<edge from-layer="511" from-port="1" to-layer="512" to-port="1"/>
		<edge from-layer="512" from-port="2" to-layer="515" to-port="0"/>
		<edge from-layer="513" from-port="0" to-layer="514" to-port="0"/>
		<edge from-layer="514" from-port="1" to-layer="515" to-port="1"/>
		<edge from-layer="515" from-port="2" to-layer="516" to-port="0"/>
		<edge from-layer="516" from-port="1" to-layer="517" to-port="1"/>
		<edge from-layer="517" from-port="2" to-layer="520" to-port="0"/>
		<edge from-layer="518" from-port="0" to-layer="519" to-port="0"/>
		<edge from-layer="519" from-port="1" to-layer="520" to-port="1"/>
		<edge from-layer="520" from-port="2" to-layer="523" to-port="0"/>
		<edge from-layer="521" from-port="0" to-layer="522" to-port="0"/>
		<edge from-layer="522" from-port="1" to-layer="523" to-port="1"/>
		<edge from-layer="523" from-port="2" to-layer="524" to-port="0"/>
		<edge from-layer="524" from-port="1" to-layer="527" to-port="0"/>
		<edge from-layer="525" from-port="0" to-layer="526" to-port="0"/>
		<edge from-layer="526" from-port="1" to-layer="527" to-port="1"/>
		<edge from-layer="527" from-port="2" to-layer="530" to-port="0"/>
		<edge from-layer="528" from-port="0" to-layer="529" to-port="0"/>
		<edge from-layer="529" from-port="1" to-layer="530" to-port="1"/>
		<edge from-layer="530" from-port="2" to-layer="532" to-port="0"/>
		<edge from-layer="531" from-port="0" to-layer="532" to-port="1"/>
		<edge from-layer="532" from-port="2" to-layer="534" to-port="0"/>
		<edge from-layer="533" from-port="0" to-layer="534" to-port="1"/>
		<edge from-layer="534" from-port="2" to-layer="536" to-port="0"/>
		<edge from-layer="535" from-port="0" to-layer="536" to-port="1"/>
		<edge from-layer="536" from-port="2" to-layer="537" to-port="0"/>
		<edge from-layer="537" from-port="1" to-layer="540" to-port="0"/>
		<edge from-layer="538" from-port="0" to-layer="540" to-port="1"/>
		<edge from-layer="539" from-port="0" to-layer="540" to-port="2"/>
		<edge from-layer="540" from-port="3" to-layer="543" to-port="0"/>
		<edge from-layer="540" from-port="5" to-layer="553" to-port="2"/>
		<edge from-layer="540" from-port="4" to-layer="549" to-port="0"/>
		<edge from-layer="541" from-port="0" to-layer="542" to-port="0"/>
		<edge from-layer="542" from-port="1" to-layer="543" to-port="1"/>
		<edge from-layer="543" from-port="2" to-layer="546" to-port="0"/>
		<edge from-layer="544" from-port="0" to-layer="545" to-port="0"/>
		<edge from-layer="545" from-port="1" to-layer="546" to-port="1"/>
		<edge from-layer="546" from-port="2" to-layer="553" to-port="0"/>
		<edge from-layer="547" from-port="0" to-layer="548" to-port="0"/>
		<edge from-layer="548" from-port="1" to-layer="549" to-port="1"/>
		<edge from-layer="549" from-port="2" to-layer="552" to-port="0"/>
		<edge from-layer="550" from-port="0" to-layer="551" to-port="0"/>
		<edge from-layer="551" from-port="1" to-layer="552" to-port="1"/>
		<edge from-layer="552" from-port="2" to-layer="553" to-port="1"/>
		<edge from-layer="553" from-port="3" to-layer="555" to-port="0"/>
		<edge from-layer="554" from-port="0" to-layer="555" to-port="1"/>
		<edge from-layer="555" from-port="2" to-layer="557" to-port="0"/>
		<edge from-layer="556" from-port="0" to-layer="557" to-port="1"/>
		<edge from-layer="557" from-port="2" to-layer="558" to-port="2"/>
		<edge from-layer="558" from-port="3" to-layer="559" to-port="0"/>
	</edges>
	<meta_data>
		<MO_version value="2022.1.0-7019-cdb9bec7210-releases/2022/1"/>
		<Runtime_version value="2022.1.0-7019-cdb9bec7210-releases/2022/1"/>
		<legacy_path value="True"/>
		<cli_parameters>
			<caffe_parser_path value="DIR"/>
			<compress_fp16 value="True"/>
			<data_type value="FP16"/>
			<disable_nhwc_to_nchw value="False"/>
			<disable_omitting_optional value="False"/>
			<disable_resnet_optimization value="False"/>
			<disable_weights_compression value="False"/>
			<enable_concat_optimization value="False"/>
			<enable_flattening_nested_params value="False"/>
			<enable_ssd_gluoncv value="False"/>
			<extensions value="DIR"/>
			<framework value="tf"/>
			<freeze_placeholder_with_value value="{}"/>
			<input_model value="DIR/best.pb"/>
			<input_model_is_text value="False"/>
			<k value="DIR/CustomLayersMapping.xml"/>
			<layout value="()"/>
			<layout_values value="{}"/>
			<legacy_mxnet_model value="False"/>
			<log_level value="ERROR"/>
			<mean_scale_values value="{}"/>
			<mean_values value="()"/>
			<model_name value="best"/>
			<output_dir value="DIR"/>
			<placeholder_data_types value="{}"/>
			<progress value="False"/>
			<remove_memory value="False"/>
			<remove_output_softmax value="False"/>
			<reverse_input_channels value="False"/>
			<save_params_from_nd value="False"/>
			<scale_values value="()"/>
			<silent value="False"/>
			<source_layout value="()"/>
			<static_shape value="False"/>
			<stream_output value="False"/>
			<target_layout value="()"/>
			<transform value=""/>
			<use_legacy_frontend value="False"/>
			<use_new_frontend value="False"/>
			<unset unset_cli_parameters="batch, counts, disable_fusing, finegrain_fusing, input, input_checkpoint, input_meta_graph, input_proto, input_shape, input_symbol, mean_file, mean_file_offsets, nd_prefix_name, output, packed_user_shapes, placeholder_shapes, pretrained_model_name, saved_model_dir, saved_model_tags, scale, tensorboard_logdir, tensorflow_custom_layer_libraries, tensorflow_custom_operations_config_update, tensorflow_object_detection_api_pipeline_config, tensorflow_use_custom_operations_config, transformations_config"/>
		</cli_parameters>
	</meta_data>
</net>
